homework13/lightning_logs/version_0/checkpoints/epoch=3-step=200.ckpt (torch, 321567 bytes, 33 tensors)

model.param_proj.proj.0.weight f4 [1, 40]
000000 62 3d 16 3e f4 6a df 3d 3f b7 96 bd a2 a5 a7 bd
       0.14671853 0.109090716 -0.0735917 -0.08185889
000010 94 0d b3 bd 19 5f f2 bd 8d 5c d9 bd d9 8c a1 bd
       -0.08742824 -0.11834545 -0.10613356 -0.07888193
000020 68 b5 d0 bd 8e f0 8d bd 15 76 f6 3b 29 66 0a be
       -0.101908505 -0.06930648 0.0075214007 -0.13515534
000030 3b 0e 7b bd 08 b7 25 3c 45 73 07 be 90 ff a8 bd
       -0.061292868 0.010114439 -0.13227566 -0.0825187
000040 ca 76 84 3d 0c f5 53 bd ec 22 6f 39 95 bb ea 3c
       0.0646797 -0.051747367 0.00022805826 0.0286539
000050 01 86 77 3d ab 40 b1 bd f7 85 78 3d e1 dd 05 3d
       0.06043053 -0.086549126 0.060674634 0.032682303
000060 68 87 e4 3c bc aa 0f bd e5 7f 4f be a7 0b a6 bc
       0.027896598 -0.035074934 -0.20263632 -0.020269228
000070 a3 95 00 3d 00 fb 3e bd eb 7e 05 3e ef 92 4e 3d
       0.031392705 -0.04662609 0.13036697 0.050433096
000080 b1 00 d6 3d ac 8b 0a be 2e 59 74 3d b8 ad 1e 3e
       0.104493506 -0.13529843 0.05965536 0.15495956
000090 82 0e 83 bd c1 8b b2 bd e7 a3 79 3d 7e 1e 96 3d
       -0.063992515 -0.08718062 0.060947325 0.07330035

model.param_proj.proj.1.weight f4 [1, 40]
000000 59 f4 93 3d e1 23 0d 3d 48 73 18 bd d8 bb 2d b9
       0.0722434 0.034458045 -0.037219316 -0.00016568543
000010 ea 8b c4 3b 67 e0 3b bd 60 03 f4 bd 27 c8 a6 bd
       0.0059981244 -0.045868304 -0.11914706 -0.08143645
000020 a7 1f df 3d ab ca be bd 2f 06 fa bc 6c 29 27 be
       0.10894709 -0.093159996 -0.030520527 -0.16324395
000030 2a 78 b4 3c 08 9f 20 3d d0 4c 92 bd 36 72 f6 3d
       0.022029955 0.039214164 -0.07143557 0.12033503
000040 73 1f 76 bd fc f5 17 be 45 34 bb 3d 27 7a b5 3d
       -0.060088586 -0.1483993 0.09140829 0.08861189
000050 13 79 df 3c c0 2f b7 3d ab 62 0e be 8d 68 a6 bd
       0.027279412 0.089446545 -0.13904826 -0.0812541
000060 93 07 03 3e 24 dc 23 3d 02 09 7a 3c 21 da cc bc
       0.12795858 0.040004864 0.015260937 -0.025006356
000070 9e 04 dc 3d c9 89 9f bd 57 94 15 3e 89 22 c8 3d
       0.10743068 -0.07789952 0.14607368 0.09772212
000080 f3 17 10 be 04 55 e6 3d c3 0c 13 3e 85 0f 13 3e
       -0.14071636 0.11246684 0.14360337 0.14361389
000090 79 cf f7 bd 6d 33 a8 bd 05 d2 e2 bb b4 ab 53 bd
       -0.12100119 -0.08212934 -0.006922009 -0.05167742

model.param_proj.proj.2.weight f4 [1, 40]
000000 9d 2a d1 bd 6d 7d 14 be 10 19 54 be 74 a9 63 3e
       -0.10213206 -0.14500971 -0.20712686 0.2223261
000010 3a 5c 18 3e 1a 12 f8 3d d3 78 c9 bd 99 d9 4f 3e
       0.14878932 0.121128276 -0.098374985 0.2029785
000020 c0 01 df 3d ec 90 03 3e 1a e7 05 3e 13 61 2e 3e
       0.10889006 0.12848252 0.1307644 0.17029218
000030 3c 49 2c be 67 f8 18 3e 1c 6a 5f 3e ad f6 99 3d
       -0.16824812 0.14938508 0.21817821 0.07517753
000040 7c bd 28 3e a5 60 69 3e 61 78 70 bd 55 5d 00 3e
       0.16478533 0.22790773 -0.058708552 0.12535603
000050 df be 24 3e 10 ad 18 3d b5 2e 2a 3e 6b 9d 37 3e
       0.16088437 0.03727442 0.1661938 0.17931144
000060 c0 68 4c 3d 30 6f 3d be 0f 5e c5 3d 30 92 79 3d
       0.049904585 -0.18499446 0.09637081 0.06093043
000070 78 75 bf 3d c8 ac 92 3c 8a 0a fd bd 58 87 58 3e
       0.09348577 0.017904654 -0.12355526 0.2114538
000080 8e 8b 7c 3d dc 7c 10 be 68 5e 0b be bf f3 46 be
       0.061656527 -0.1411013 -0.13610232 -0.1942892
000090 2a f3 4b 3e 0e 6f ed 3c 3e 91 63 bc 48 e3 2b be
       0.19916978 0.028983619 -0.013889609 -0.1678592

model.rnn.weight_ih_l0 f4 [160, 32]
000000 0e d7 20 3e 83 88 37 3e 4c af 38 3d 6d 05 e1 3d
       0.15707037 0.17923169 0.04508905 0.10987363
000010 ee d9 ef bc 3c 51 b3 bc 74 c4 8f 3b 50 28 97 3c
       -0.029278722 -0.021889322 0.0043874327 0.01845184
000020 4f d1 69 bd a0 7b f0 bd 8a 39 d6 bd c3 89 c9 3d
       -0.057084378 -0.117423296 -0.104601935 0.09840729
000030 6b 2f 34 3c e6 0e 25 3e c2 a6 bb 3d 9b d8 01 be
       0.010997633 0.16118965 0.09162666 -0.12680285
000040 ab 2c d6 bd 8e 6f d2 bc ae d4 10 3e 6b 4a 95 3d
       -0.104577385 -0.025687959 0.14143631 0.07289585
000050 1f ba bf 3d 56 ac 27 bd 6c cc 8b 3d c6 24 07 3e
       0.09361672 -0.040935837 0.068261 0.13197622
000060 61 42 0d 3e 5c 12 0e be 4c 0a 59 3e f3 98 7c 3d
       0.13794853 -0.13874191 0.21195334 0.0616693
000070 00 c2 18 3d 74 2d d2 bd f8 54 84 3d 2c 4a 0b bd
       0.037294388 -0.10262576 0.06461519 -0.034006283
000080 d6 1f 8e bd 16 eb 8b 3d e5 c8 d9 bc fe a9 21 3e
       -0.06939666 0.068319485 -0.026585052 0.15787503
000090 27 79 1a 3e 3d df 5a bc 9d 4e 97 bd 8a cc 26 3d
       0.15085278 -0.013358888 -0.07388041 0.040722407
0000a0 84 32 8c 3d 90 71 fb 3d 1b 10 08 3e a4 d5 04 3c
       0.068455726 0.1227752 0.13287394 0.0081075765
0000b0 e0 d6 a5 3d 17 b2 f3 bc 3d 44 14 3e 57 68 ef bd
       0.08097625 -0.029748006 0.14479156 -0.11689823
0000c0 4a c0 71 3d 4c d5 f3 bd 5b 7e 3b 3e 97 84 3a 3e
       0.05902127 -0.119059175 0.1830992 0.18214642
0000d0 c4 d5 fe bd 60 c0 f8 3d 4e 25 80 3d 3f a5 61 bc
       -0.12443116 0.121460676 0.06257115 -0.013772308
0000e0 5c ce a9 bd ec e9 8e 3d 7e 90 67 bd f4 b4 f7 3d
       -0.08291313 0.06978211 -0.056534283 0.12095061
0000f0 35 75 d6 3c 4d ea b8 3c 1c 5f 89 bd 73 25 3f 3e
       0.026178936 0.02257266 -0.06707594 0.1866663
000100 ad e6 2f 3e 97 d6 0a bd 15 65 e3 3d cd 40 f6 3c
       0.1717784 -0.033896055 0.11103264 0.030060196
000110 c4 fd 4c 3d 9d 99 e7 bd 42 ec f7 3d d5 c4 9e 3d
       0.050046697 -0.11308596 0.121056095 0.077523865
000120 97 04 c8 bc e0 b7 71 3d ce f6 33 3e 2b 66 f1 bd
       -0.024416251 0.059013247 0.17574617 -0.11787065
000130 84 de 94 3d eb 8e 2c bd 94 50 28 b9 0a f9 1e 3e
       0.07269004 -0.042128485 -0.00016051746 0.15524688
000140 18 e3 3a 3e 4a 9d 18 bc 6f f4 b0 3c 6b d0 2d 3c
       0.18250692 -0.009314844 0.02160093 0.010608773
000150 9b 7c 28 3e 1f 99 a9 3d 86 77 94 bd 0e 75 fe 3d
       0.16453783 0.08281159 -0.0724936 0.1242467
000160 65 d9 6b bd cd c0 93 3c 95 89 c6 bd 43 ab b9 3d
       -0.05758037 0.01803627 -0.096942104 0.09065869
000170 95 a2 11 3e d8 b7 b7 bc 1c 0d 1e be 48 0d b6 3d
       0.14222176 -0.02242653 -0.15434688 0.08889252
000180 58 c9 a2 bd 4f a3 06 3e fa 30 77 bc 5f 2a 8f 3d
       -0.079485595 0.13148235 -0.0150873605 0.069905035
000190 f4 19 9a bd 8a 08 95 bd 1d bb e8 bc 05 83 73 3d
       -0.075244814 -0.07277019 -0.028409535 0.05945112
0001a0 e5 67 53 3d fa f3 8e bd 31 19 c9 bc 4f 34 de 3d
       0.051612753 -0.069801286 -0.024548145 0.10849821
0001b0 a0 9c d4 3d ab bd 81 3d 48 24 70 3c 96 94 68 3d
       0.10381436 0.063350044 0.014657088 0.056782328
0001c0 62 58 8d bd a2 58 13 3e c4 f7 74 39 b7 a0 89 bd
       -0.06901623 0.1438928 0.00023361953 -0.06720107
0001d0 01 e7 03 3e 02 89 44 3d 9a fe a5 bd ca ae e2 bd
       0.1288109 0.047982223 -0.08105202 -0.110684946
0001e0 84 23 c8 3d df 6d d5 3c 5b e0 f1 bd db 4d 07 be
       0.09772399 0.026053367 -0.118103705 -0.13213293
0001f0 b2 ec f5 bd 9e c5 81 3d ed c3 7a bd e5 90 28 be
       -0.12008037 0.063365206 -0.061222006 -0.16461523
000200 4e 7b 9a bd 40 fc 2b be e6 b5 19 be 6f c8 30 be
       -0.0754305 -0.16795444 -0.15010795 -0.1726396
000210 26 4a 20 bd 17 8f c1 3d ec 18 98 bc fb 48 b0 bb
       -0.039133213 0.0945112 -0.018566571 -0.0053797937
000220 92 f0 a5 3d 9b 22 12 be 2a 6d 08 be 49 3d d6 bd
       0.08102526 -0.14271013 -0.13322893 -0.10460908
000230 ad 8d ec 3c f4 b7 f3 bb d5 42 1a 3d 4a eb ec bd
       0.02887615 -0.0074377004 0.037661392 -0.11568315
000240 84 05 84 bc 26 12 f8 3d 29 7c c6 bd b5 71 01 be
       -0.016115911 0.121128365 -0.096916504 -0.12641032
000250 61 e4 c0 3c e1 64 c0 3d 48 ea 21 3d 1d ee a9 bc
       0.0235464 0.09394241 0.03953007 -0.020743424
000260 ea 90 c4 3d 6a ec 1d 3e fc f8 35 3e 1f b0 dc 3d
       0.09597953 0.15422216 0.17770761 0.1077578
000270 49 88 2b 3d 94 fb 53 bd 39 76 d0 3d e1 b9 14 bd
       0.04187802 -0.051753595 0.10178799 -0.03631008
000280 c6 b5 ba bd e8 88 19 bd e9 d4 fe 3d 2e 8f b9 bd
       -0.09116702 -0.03748408 0.12442953 -0.090605125
000290 72 e7 ba 3c 67 d2 d8 3d 5e a2 c7 bd f2 ab e5 3d
       0.02281544 0.10587006 -0.09747766 0.112144366
0002a0 e7 66 4e bd 1d 32 1f 3d f7 dd c5 bc 46 1d f0 bd
       -0.050391104 0.03886615 -0.024153693 -0.117243335
0002b0 47 7c 3e bc e9 87 f0 bd e2 d0 bc bd 10 45 37 3e
       -0.01162631 -0.11744673 -0.09219529 0.17897439
0002c0 a6 0a d2 3d e5 49 53 bd cb 37 a3 bd 00 eb 81 3d
       0.10255937 -0.051584143 -0.07969626 0.06343651
0002d0 fd 5c 5a bc ee ef 28 3e f0 c1 09 3e bd 58 d0 bd
       -0.013327834 0.16497776 0.13452888 -0.101731755
0002e0 3d f0 ff bd c2 40 af 3d 87 1e 41 3e ea a5 44 3e
       -0.12496994 0.085572734 0.18859302 0.19203916
0002f0 46 3d d8 3d e1 e5 76 bd 8a d3 2b 3c 19 91 df bc
       0.10558562 -0.060277823 0.010487447 -0.027290868
000300 da c6 50 bd eb 29 48 bd ff aa cd bd fd 84 0c 3d
       -0.05097089 -0.0488681 -0.100423805 0.034306515
000310 69 8f ca bc 67 99 20 3e 32 43 52 bc d1 9b e5 3c
       -0.024726586 0.15683518 -0.012833403 0.0280284
000320 8b c9 92 3d de 8f 8f 3d a1 04 3b 3c 55 5b 11 3e
       0.071673475 0.07009862 0.011414678 0.14194997
000330 49 43 77 3c d4 8b 25 3e 02 f7 9d 3c 92 d8 29 3d
       0.015091726 0.16166621 0.019282822 0.041466303
000340 4a 52 6f bd 8e 43 36 bd 58 68 ae 3d 18 90 26 3e
       -0.058428086 -0.04449802 0.08515996 0.16265905
000350 82 47 da bd 06 ae aa bd 01 cd d5 bc ce 3c 94 bd
       -0.1065817 -0.083339736 -0.02609873 -0.0723816
000360 96 9e 14 3d 8a 53 07 3e dd 74 02 bd 7c db 48 3c
       0.03628405 0.13215461 -0.03184973 0.01225936
000370 77 de a6 bd 1f 09 a8 bd b3 08 00 3e c6 c9 ff bd
       -0.081479006 -0.08204865 0.12503318 -0.12489657
000380 b6 07 35 3e 54 5c de bd 3b ff f7 3d 03 ac 9f bd
       0.17678723 -0.10857454 0.12109228 -0.077964805
000390 74 7f 6f bb 50 91 2c bc 29 b0 4b bc c6 2f b4 3c
       -0.0036544474 -0.010532692 -0.012432137 0.021995436
0003a0 4b 79 33 3e 55 1b 6b 3d 25 b2 fc bd 0d bf c9 3d
       0.17526738 0.057399113 -0.12338666 0.09850893
0003b0 17 d8 96 3d ab b1 3a bd 2a c1 de bd 7c 44 d1 bd
       0.073654346 -0.045579594 -0.10876687 -0.102181405
0003c0 3d d5 b9 3d 28 79 c5 bd 81 5e a1 bd 1c 8c a8 3d
       0.09073875 -0.09642249 -0.07879353 0.08229849
0003d0 8e b7 fd bd bf 55 16 3e 55 96 27 bd ae b0 90 bc
       -0.12388526 0.14681147 -0.040914852 -0.017662372
0003e0 30 10 8f 3d 2d e1 a0 bd e0 7b 5a bd 74 45 1e be
       0.069855094 -0.07855449 -0.053340793 -0.15456182
0003f0 66 17 b1 3d 32 30 c9 bd b0 75 e9 bc 30 93 ca 3d
       0.08647041 -0.09823646 -0.0284985 0.09891355

model.rnn.weight_hh_l0 f4 [160, 40]
000000 fb c3 e9 bc 27 ca 55 bd 06 f1 82 3d 44 45 65 bd
       -0.028535834 -0.05219474 0.06393628 -0.05597426
000010 93 b5 b0 3d a1 4f ed bd 8b f6 f1 3d 14 b9 2e 3d
       0.086283825 -0.11587454 0.118146025 0.042656973
000020 71 b6 69 3d b2 a8 f2 3d 3d c9 13 be 2b 58 81 bd
       0.057058755 0.11848582 -0.14432235 -0.06315645
000030 6c fb c3 3d 6a ad 9c 3d 83 da b3 bd a1 cc 38 be
       0.09569439 0.076502636 -0.08781912 -0.1804681
000040 bf 17 9b 3d c4 df f6 3d 4e 6a 07 be a0 e2 09 3e
       0.075728886 0.12054399 -0.13224146 0.13465357
000050 52 6e aa 3d 34 33 be bd 42 63 90 bb 5f 43 30 3e
       0.08321823 -0.0928711 -0.0044063637 0.172132
000060 cd 8b 13 3d 9e bc bd 3d 55 79 3e 3d 99 25 90 3c
       0.036021996 0.092644915 0.04650243 0.017596053
000070 b9 8a fb 3c 15 9e 27 3c dd 08 10 3e 0a 4a eb bd
       0.030705797 0.010230561 0.14065881 -0.11488731
000080 d5 07 32 3e 9d a4 87 bc d0 df 5e bd 6f 44 c5 bd
       0.173858 -0.016557986 -0.054412663 -0.09632193
000090 8d 53 90 bd d9 6e c9 3b 91 c2 67 bd 99 95 03 be
       -0.07047186 0.0061472473 -0.056582037 -0.12850036
0000a0 2a 30 5d bd c5 43 2a 3d 02 d2 5f bd 9c d7 2b bd
       -0.05400101 0.041568536 -0.05464364 -0.041953668
0000b0 f2 f5 1d 3e 7c ef e3 bd 25 4e f8 3c 0a 58 40 3d
       0.15425852 -0.111296624 0.0303107 0.04695896
0000c0 e4 81 31 3e 26 b8 1a bb cf 41 11 bd 8b 7e a0 bd
       0.17334706 -0.0023608296 -0.03546315 -0.07836636
0000d0 ef 59 f7 bd bd aa 48 3d c0 29 86 3d 66 3c 00 be
       -0.120777 0.048990954 0.06550932 -0.1252304
0000e0 ef 7e 3a be 97 e1 e6 bd a3 16 94 3d 9f 6d 04 3a
       -0.18212484 -0.112734966 0.0723088 0.0005051735
0000f0 e6 3f 14 be c1 97 1c be fc 07 d0 bb 10 9e 92 3c
       -0.144775 -0.15292265 -0.006348608 0.017897636
000100 9f 8b 4a be 68 26 6a bd c7 ff 9c bd 39 c6 77 bd
       -0.19779824 -0.057165533 -0.07665973 -0.060491774
000110 18 cb 07 be d7 51 f8 bd 55 b7 47 3e 43 75 23 3c
       -0.13261068 -0.12124985 0.1950353 0.009976688
000120 82 94 01 bd 7a 1f fa 3c 64 a4 c5 3c f6 8f 87 bd
       -0.03163577 0.030532587 0.02412624 -0.06619255
000130 45 14 13 3e 34 ef a7 3d 85 a4 6f bc 23 fa 33 3d
       0.14363201 0.08199921 -0.014626627 0.04393972
000140 02 82 ef 3d f0 55 a5 3d 52 1d 25 3e 4a 1c 29 3e
       0.11694719 0.08073032 0.16124466 0.16514698
000150 63 0b ee bd 5f 0a a3 bd 9c 3c 8f bd 15 04 07 3c
       -0.116232656 -0.079609625 -0.06993982 0.008240719
000160 c6 a4 83 bd e2 73 56 3d 48 91 c5 bd e9 ea 18 3e
       -0.064279124 0.05235661 -0.09646851 0.14933361
000170 b2 83 20 be 80 bd 0b 3c 04 82 33 3c 55 54 18 be
       -0.15675238 0.008529067 0.010956291 -0.1487592
000180 ec 58 0a bd 9d 4c 26 3e 0a d8 26 be 0c c1 6f 3b
       -0.03377621 0.16240163 -0.1629335 0.003658357
000190 8a 3f b2 3d 0e ea d9 3c 76 b0 00 3e 6d c2 b7 3d
       0.08703525 0.026600864 0.12567315 0.08972631
0001a0 d8 e8 81 3d 2c 47 8f bd 15 fc 84 bb f1 9f e3 bd
       0.063432395 -0.06995997 -0.004058371 -0.11114491
0001b0 c9 25 ba bd b2 7b 24 be 13 71 20 be 15 37 04 3e
       -0.09089238 -0.16062811 -0.15668134 0.12911637
0001c0 57 f3 d2 3d 76 b3 7f bc 17 55 e9 3d c7 a5 51 3d
       0.1030032 -0.015606752 0.11393183 0.05118349
0001d0 9d 76 fd 3d f0 5f ff bd e3 e9 d3 3d 6e ba 97 3d
       0.12376139 -0.124694705 0.10347345 0.074086055
0001e0 0c 01 22 bd ce e3 94 3d 31 7b 00 bc 0e d5 08 bb
       -0.03955178 0.07270013 -0.007841871 -0.0020878944
0001f0 12 36 6a 3d 13 09 b9 bd 23 90 90 bc 9c 34 9f 3d
       0.05718047 -0.09034934 -0.017646855 0.07773706
000200 28 3d c9 bd 84 7c f7 bd 86 fa 0a bd 12 e9 a2 3b
       -0.09826118 -0.12084296 -0.033930324 0.004971632
000210 b8 7b 51 bd 16 25 f2 3d ce e5 f3 3d 68 f5 3b 3d
       -0.051143378 0.1182348 0.11909066 0.045888335
000220 c0 e0 03 3c 36 ef 0f 3e f8 4f 09 be c4 b6 47 bd
       0.00804919 0.14056095 -0.13409412 -0.048758283
000230 db 0c 0c bd 89 d0 b2 3d 1c 98 d4 bd 47 4a c9 bd
       -0.034191947 0.08731181 -0.10380575 -0.098286204
000240 d7 31 97 3d 82 38 07 3d ac 62 c5 bc 2a f4 23 3e
       0.07382553 0.033012874 -0.024094902 0.1601111
000250 a7 08 1b 3e 4f 61 8b 3d 32 ce db bd 7f e6 01 be
       0.1514002 0.068056695 -0.10732688 -0.12685584
000260 d9 54 1b 3e ba 1b f8 bd dc 90 c5 3c e9 5d 0f be
       0.15169086 -0.121146634 0.024116926 -0.14000668
000270 a2 16 a4 3c a2 fb 1f bc 51 0b 10 3e 6d ca 7e bd
       0.020030323 -0.009764584 0.14066817 -0.062204767
000280 90 51 01 3e 05 ff 48 3d 0f e5 03 be 13 68 87 3d
       0.1262877 0.04907133 -0.12880348 0.066116475
000290 17 68 0e 3e 2a 85 f6 3c 1b e8 13 3c c6 e3 a3 bd
       0.13906895 0.030092794 0.009027506 -0.08002429
0002a0 cf fe c9 3d 81 4a 14 3e a4 af b3 3d 27 91 09 3e
       0.09863054 0.14481546 0.08773735 0.13434277
0002b0 a1 b6 72 3d fe 42 ac 3d 05 32 ef 3d 09 ac 84 3d
       0.0592562 0.08411215 0.11679462 0.064781256
0002c0 bf 36 60 bd 42 e5 01 3d d2 2f 8e 3b 01 99 ef bd
       -0.05473971 0.031712778 0.0043391967 -0.11699105
0002d0 02 1c 13 3e 93 e4 fd bd 9a 54 05 3e 82 d0 2c bd
       0.14366153 -0.12397113 0.13020554 -0.042191036
0002e0 77 e5 89 bd f0 de 16 be 73 97 16 3e ff e8 87 3c
       -0.0673322 -0.14733481 0.14706211 0.016590593
0002f0 83 3a 04 3c f3 82 95 3b ff 29 22 3e 6b 04 86 3d
       0.008070591 0.0045627295 0.15836333 0.065438114
000300 7c 34 96 bd 3b ce e8 bd 94 b1 9b bd 3e 5e 11 be
       -0.07334229 -0.1136746 -0.0760223 -0.14196107
000310 63 7a b1 3a 5a 86 0c be 6c e0 56 3c 77 ae b4 bd
       0.0013540502 -0.13723126 0.01311503 -0.08822339
000320 94 c8 5d 3d 65 7c a0 bd 4c 1b 26 3d f1 e4 c4 3d
       0.054146364 -0.078362264 0.040553376 0.096139796
000330 40 f9 a3 bd ee f6 d5 3d a1 c2 1f 3e 2e 07 81 bd
       -0.08006525 0.10447489 0.15601589 -0.063001975
000340 d9 b3 4e 3d 0d b6 1a be 5e cf db 3d 05 1e 08 3e
       0.050464485 -0.1510851 0.107329115 0.13292702
000350 d8 4e 8f bc f0 0f bb 3b 97 f1 2a bd e0 07 15 3d
       -0.01749365 0.005708687 -0.041734304 0.036384463
000360 5f f7 24 be 4e 3f 21 3e 13 2f b6 3b d2 7e 9e 3d
       -0.1610999 0.15746805 0.005559811 0.07739033
000370 d2 84 ec 3d e1 ee 9e 3d c7 78 fe bc 44 8a a2 bd
       0.11548771 0.07760406 -0.03106345 -0.07936528
000380 ac 1f a8 3d 35 a6 69 3d e7 9c 51 3d a6 d0 08 3e
       0.08209166 0.057043273 0.051175024 0.13360843
000390 92 7f be bd 86 0f 3b 3d e3 b0 20 3d 59 42 87 bd
       -0.09301676 0.0456691 0.039231192 -0.06604452
0003a0 17 9c d2 bd 28 d5 5c 3e 0f 95 1f 3d ee 0e f9 3c
       -0.10283678 0.21565688 0.038960513 0.030402627
0003b0 e8 bc ff bc bb c1 d7 bd 20 2a 75 3d df 68 ac 3d
       -0.031218007 -0.10534998 0.059854627 0.0841844
0003c0 80 b4 e2 bd 45 09 c3 3d b8 cb ed 3d 96 d9 d6 bd
       -0.11069584 0.095232524 0.11611122 -0.1049072
0003d0 f8 af 35 bc bd 8d 91 bd 1e 29 15 3e f2 cf 5f 3d
       -0.0110893175 -0.071071126 0.14566466 0.05464167
0003e0 0a 87 f2 3c 4a 93 ae 3c 5e 73 ed bd 69 8f 93 bd
       0.029605407 0.021310467 -0.1159427 -0.07205088
0003f0 99 c9 f4 bd 2f 36 bd 3d db 00 5b bd ed 2f 27 be
       -0.11952514 0.0923885 -0.053467613 -0.16326876

model.rnn.bias_ih_l0 f4 [160]
000000 64 e6 d2 bd 08 aa a3 bc 29 a6 fb 3d 98 21 86 bd
       -0.1029785 -0.019978538 0.12287552 -0.06549376
000010 42 10 82 3d 46 de 21 3e d2 a2 bf 3d 28 b4 0e 3d
       0.06350757 0.15807447 0.093572274 0.03483978
000020 28 81 fb 3d fa 89 a9 3d de 7e 7f 3c e1 8d 97 3d
       0.12280494 0.0827827 0.015594212 0.07400108
000030 a3 b3 1e bc 66 03 ce bd 26 dc 03 bd f9 47 b5 bd
       -0.009686383 -0.10059242 -0.03219237 -0.08851618
000040 37 d0 ea bc ac bd 1f be e9 cd 05 be 18 5c 0a be
       -0.028663738 -0.15599698 -0.1306683 -0.13511693
000050 ab d0 b9 ba da 2b 27 3d 83 37 bf bd f9 42 60 3d
       -0.0014176568 0.040813304 -0.0933676 0.05475137
000060 72 d8 e8 3d 7b d2 e3 bb cc f8 0e 3e 32 0c 52 3d
       0.11369409 -0.0069525815 0.13962096 0.05128116
000070 ed b9 8d 3d 31 a6 0c 3e 4d 07 88 bd 21 94 d6 bd
       0.06920228 0.13735272 -0.066420175 -0.10477472
000080 5b e1 e9 3c 37 fb 29 3e 7b 84 be bb 53 c7 70 3d
       0.02854984 0.16599737 -0.0058141327 0.05878384
000090 55 f2 ca 3c 6f 82 fd bc 10 eb 15 be 9a bc 03 3d
       0.024773756 -0.030945985 -0.1464045 0.032162286
0000a0 e1 a1 7f 3d 39 4d 6f bd 96 e2 48 bc 53 f2 da bd
       0.06241024 -0.058423255 -0.012261054 -0.10690751
0000b0 8e 8f 8a 3d 72 1c 12 be 62 1e ef 3d c9 5f 1d 3c
       0.06765662 -0.14268664 0.11675717 0.0096053565
0000c0 9a e4 01 3e 8e c8 17 3e a3 ae 3f 3e 16 c3 2f 3e
       0.12684861 0.148226 0.18718962 0.17164263
0000d0 02 32 47 bc 63 7c 0b be 6d 77 45 bb ec a8 0e 3d
       -0.012157919 -0.13621669 -0.0030130998 0.034829065
0000e0 ee 10 ae bc 81 96 21 3e ef 9c de 3d ca df 2b 3e
       -0.021248307 0.15780069 0.108697765 0.16784588
0000f0 d8 c9 22 3e b6 ae ff 3c 31 0e 26 bd cb 55 a9 3d
       0.1589731 0.031211238 -0.040540878 0.08268317
000100 80 c2 d3 bd 50 d1 bf bd cd a5 ac 3d 12 43 d3 3d
       -0.10339832 -0.09366095 0.084300615 0.10315527
000110 d6 16 1c 3e f6 96 46 bd 74 2e 56 39 60 1b 21 be
       0.15243086 -0.04848381 0.00020425936 -0.15733099
000120 0c e5 00 3e 28 ed 93 3d 48 18 da bd 98 8b 46 3c
       0.12587374 0.07222968 -0.106491625 0.012118243
000130 f4 1f 54 3d 1f 0f 3e bd 5c d6 c3 bb bd 28 16 be
       0.051788285 -0.04640114 -0.0059764814 -0.14663978
000140 24 ca 23 be c5 44 9a bd 3a a7 74 bd 98 df a2 3d
       -0.1599508 -0.07532648 -0.059729792 0.079528034
000150 7d db 8e bd fb e0 10 be 36 c3 bc bc 33 1c 29 3e
       -0.06975458 -0.14148323 -0.023042303 0.16514663
000160 b5 98 b4 3d 2d 8e 92 3d b2 8c c0 bd c3 4e c8 bd
       0.08818189 0.07156024 -0.094018355 -0.097806476
000170 cd 92 c0 3c c1 fc 07 3c c7 dc cd 3c 82 20 e5 bd
       0.0235075 0.008300007 0.025129689 -0.11187841
000180 e3 c0 eb bd 08 75 9a 3d f4 12 ae 3d 3f 83 18 3d
       -0.115113996 0.07541853 0.08499709 0.03723454
000190 b8 32 1b bd c2 14 5f bc c8 0e 90 3d 0d a7 bb bd
       -0.037890166 -0.013615789 0.07034069 -0.09162722
0001a0 a2 01 0b be d7 ce 00 be 98 3e 77 bd 6b 12 25 be
       -0.13574842 -0.12578903 -0.06036243 -0.16120307
0001b0 41 09 b1 3d 12 47 db 3d 69 73 da bd 44 11 e3 3c
       0.08644343 0.10706915 -0.10666544 0.027718194
0001c0 24 5e 0f be ff 5a b7 3d f1 67 0e be 3c 37 53 bd
       -0.14000756 0.08952903 -0.13906838 -0.051566347
0001d0 90 a1 b3 3c 10 2a 4d 3d b6 18 9f 3d 7c 2a a1 3b
       0.021927625 0.050088942 0.07768385 0.0049183946
0001e0 53 96 22 3e 85 d3 10 be 22 55 d1 bd 0c 0f f9 bd
       0.15877657 -0.14143188 -0.10221316 -0.12161073
0001f0 d8 3f 1f 3d ea f2 2f bb da 46 27 bd f2 29 91 3c
       0.038879246 -0.002684767 -0.040839054 0.017720196
000200 7e c1 7e 3d 53 a5 c6 bd fb 6e d7 bd 93 2e da bc
       0.062196247 -0.09699502 -0.10519215 -0.026633536
000210 84 f5 2c be 1a ab b0 3d b6 f1 8c 3d fa 5b 21 bd
       -0.16890532 0.08626385 0.0688204 -0.039394356
000220 57 e3 e0 bd ad f2 a6 bd 64 35 a8 bd 03 bd 99 bc
       -0.10980862 -0.081517555 -0.082133085 -0.018766886
000230 df 64 07 3e 1c 9a 29 3e 6f 38 6f bc 93 db 55 3c
       0.13222073 0.16562694 -0.014600857 0.013052839
000240 da 41 93 bc 08 f1 c3 bc 8e 84 f9 3d 01 49 f8 bd
       -0.017975736 -0.023918644 0.12183486 -0.121232994
000250 0f e4 00 bc 8a 8d 49 3e b3 ec 13 bd 66 b0 b2 bd
       -0.007866873 0.19682899 -0.036114406 -0.087250516
000260 a8 44 b0 bd 3c 01 21 3e 06 f6 10 3e fe d1 bd 3c
       -0.08606845 0.15723127 0.1415635 0.023171421
000270 98 ad a8 bc fa e9 f4 3c 49 38 91 bd c1 88 09 3e
       -0.020590588 0.029896725 -0.07090814 0.13431074

model.rnn.bias_hh_l0 f4 [160]
000000 46 20 e8 bd 17 fd 27 3e b0 ac f2 3d 1f ab 67 bc
       -0.11334281 0.1640514 0.11849344 -0.01413992
000010 e3 15 01 bd e9 90 f1 bc 97 99 0a 3e 6f ca 07 3e
       -0.031515013 -0.029488044 0.13535152 0.13260816
000020 6e 1c 7f 3d 7b 29 1f 3e 6e d5 21 bd 4f 92 22 bd
       0.062282972 0.15543167 -0.039510183 -0.039690312
000030 57 67 5c bd 7e 52 d7 3d e2 c0 3f 3d e5 83 90 bd
       -0.05380949 0.10513781 0.046814807 -0.07056407
000040 4a 9e 20 be bc 2e 64 3b a9 48 af 3d 0d 56 f8 bc
       -0.15685382 0.0034817895 0.08558781 -0.03031447
000050 2b 3c 03 3e 08 d3 1c 3e ad 50 54 3d a2 61 c0 bd
       0.12815921 0.15314877 0.05183475 -0.09393622
000060 97 c2 00 bd ee 53 91 bd 09 e6 21 3e 88 cc 13 be
       -0.031435575 -0.070960864 0.15810408 -0.14433491
000070 94 b7 30 3d d8 db 2b 3e 4b 90 fe 3d 36 81 02 bb
       0.043143824 0.16783082 0.124298654 -0.0019913442
000080 57 22 1a 3e 6d 19 ee 3c 35 6c ac bd 5d e0 be bd
       0.15052162 0.029064858 -0.08419076 -0.09320138
000090 5a fe cd bd 5d 6c 6f 3d d8 1f 75 bd 4c cc 9c 3d
       -0.10058279 0.058452953 -0.05984482 0.07656154
0000a0 03 3a c7 3d 39 32 c8 bd 65 1c 80 3d bc 70 f0 3d
       0.09727862 -0.09775204 0.06255416 0.117402524
0000b0 13 c4 04 bd 82 76 7c 3d 8a e8 fa bd 34 4e b7 3d
       -0.032413553 0.061636455 -0.122513846 0.08950463
0000c0 11 7b 43 bd 57 49 94 3d 0e 2e 09 3e 1a 81 a1 bc
       -0.047724787 0.07240551 0.13396475 -0.01971488
0000d0 78 99 85 bd 6f 8e 1f 3e 17 74 cd bd 50 dc 59 bc
       -0.065234125 0.15581678 -0.10031908 -0.0132971555
0000e0 8f df c5 ba 66 c6 0f be bf 6a 86 bc ea b4 ab 3d
       -0.0015096533 -0.14040527 -0.016408322 0.08384116
0000f0 63 8b 84 bd 04 07 47 bd ae 09 0f 3e b4 f9 18 be
       -0.064718984 -0.048590675 0.13968536 -0.14939004
000100 64 d5 25 3e 6b 6f b5 bc d8 a1 15 bd 93 50 1c 3e
       0.16194683 -0.022147855 -0.0365313 0.15265112
000110 1e 4c cc bd f5 f7 c8 bd 72 8c 14 3e 1d 4c c9 bd
       -0.09975456 -0.09812919 0.145067 -0.098289706
000120 0a 3d 08 3e d8 00 aa 3d a9 85 db ba 06 8c d3 bd
       0.13304535 0.08300942 -0.0016748208 -0.10329442
000130 f7 b0 8c bd bb a9 c1 bd 8a 27 a8 bd 2d 12 d6 3d
       -0.06869691 -0.09456202 -0.082106665 0.104526855
000140 52 a8 c9 bd 4e ac 98 3d 27 27 04 bd 44 c5 ef 3d
       -0.09846558 0.074547395 -0.0322639 0.11707547
000150 16 29 f7 3d 2a 22 3e bc 9f 3b 10 3e 8c 61 f2 3d
       0.120683834 -0.011604825 0.14085244 0.11835012
000160 bd f8 0f be ef a5 d4 3d bb d3 b2 bd 62 42 0d be
       -0.1405973 0.10383212 -0.08731791 -0.13794854
000170 7b fa b5 3d 44 6e ad 3d cd 8c 2f be a0 52 0e be
       0.08885666 0.08468297 -0.17143555 -0.13898706
000180 b0 5a 83 bd 62 cd cf 3d c3 6b 03 be a2 bd 2d 3e
       -0.06413782 0.101465955 -0.12834077 0.1696687
000190 5b 07 99 bd ff b3 8e 3d 98 c2 67 3b 8c fe 29 bd
       -0.07472106 0.06967925 0.003536379 -0.04150252
0001a0 b3 0f 2c be f4 00 86 bd ec 89 c5 3d c5 a3 ba bd
       -0.16802864 -0.065431505 0.09645447 -0.09113268
0001b0 18 ed d9 bd 91 46 04 be ee 93 b6 bd 77 53 ed bd
       -0.10640925 -0.12917544 -0.08914934 -0.11588185
0001c0 26 08 4a bd 49 6e 77 bd 90 5e 0f be 62 4c 66 3c
       -0.049324177 -0.06040791 -0.14000916 0.014056297
0001d0 a4 b4 eb bd b2 7c 31 3c c4 ad 15 be 67 b1 45 3c
       -0.11509064 0.010832952 -0.14617068 0.012066222
0001e0 98 75 a3 bc 17 83 ca 3d 96 1a 18 3e 09 6a 13 3e
       -0.019953534 0.09888285 0.14853892 0.14395918
0001f0 80 7d d8 bb 74 2b 06 3e 32 06 f5 bd 05 e2 3b bd
       -0.0066067576 0.13102514 -0.11964072 -0.045869846
000200 25 99 f5 3d b1 7c aa 3c dd b8 6a bd af 25 e6 bd
       0.119921006 0.02081141 -0.057305206 -0.11237656
000210 f9 c2 bd 3c 73 08 15 be 19 8c 28 3e f2 7b 58 3d
       0.02316426 -0.14554004 0.16459693 0.05285258
000220 b4 5d a4 3d ef 28 a0 bd 77 f1 5a 3c 93 13 51 3d
       0.08025685 -0.078203075 0.013363234 0.051044058
000230 11 34 73 3d 02 6a 84 bd 4e ec 97 bd 1d b2 86 bc
       0.059375826 -0.06465532 -0.074181184 -0.016442353
000240 7c 8d b5 3d 7b 0d 55 3d 9c 28 ff 3c 42 6e 24 be
       0.08864877 0.05201481 0.031147294 -0.16057685
000250 87 ea 3a 3c 0e e2 da bd 9f ec 04 3e 41 87 27 bc
       0.011408455 -0.10687648 0.12980889 -0.010225118
000260 6c 37 61 bb 63 31 4e 3d c3 20 40 3d b2 51 08 3e
       -0.003436531 0.050340068 0.046906244 0.13312414
000270 8a f2 03 3e 07 6a 99 bd f9 b3 06 3c 2a 9d d1 bb
       0.1288549 -0.07490926 0.00822162 -0.0063969092

model.rnn.weight_ih_l1 f4 [160, 40]
000000 35 37 fa bd 59 2c 7e 3d 14 05 0e bc 63 12 de bd
       -0.12217561 0.062054012 -0.008668203 -0.10843351
000010 b2 92 64 3d a8 ce 69 3d d2 f4 1f 3e f6 6e f2 3d
       0.055803962 0.05708185 0.15620735 0.1183757
000020 a0 94 a6 3d 25 73 2d be 82 e8 e7 bd 36 bc 46 bd
       0.08133817 -0.16938455 -0.11323644 -0.048519336
000030 d2 71 09 3d 0c 0c a8 3d 2b 66 04 3c 99 07 3f 3d
       0.033555813 0.08205423 0.008080999 0.046638105
000040 eb 53 aa 3c 68 e9 cb 3d 5b 9c 60 bd 7f 2d c9 bd
       0.020791968 0.09956628 -0.054836612 -0.09823131
000050 44 c9 07 3e 32 6c 88 bc 1d 7f ce bc cd 75 13 3e
       0.1326037 -0.016653154 -0.025207097 0.14400406
000060 9c 75 a9 3d 90 04 84 3c 30 e4 03 3d ef c4 6e bd
       0.08274385 0.016115457 0.03220004 -0.05829328
000070 8d 89 b8 bd ad 59 9c bc 0c 24 0a 3b 03 0e de 3d
       -0.09010611 -0.01908573 0.0021078615 0.10842516
000080 b7 e0 30 3e 76 c0 26 3e ce 8a de bc e0 4c 14 3d
       0.17273222 0.16284356 -0.027165797 0.036206126
000090 a3 55 9b bd a0 32 6f bd 36 14 a4 3d 54 3c e2 3d
       -0.07584693 -0.05839789 0.080116674 0.11046663
0000a0 8e 9b c7 bd 94 77 b6 bb 18 c1 6b bc 78 e7 8f bc
       -0.097464666 -0.005568454 -0.014389299 -0.017566428
0000b0 39 f5 8b bd a1 81 20 be 8b 3f 20 bd 9e 19 9d bd
       -0.06833882 -0.1567445 -0.0391231 -0.07670902
0000c0 9d 84 1b 3d 3a 05 81 3d 1b 7b 1f be 00 c5 25 bd
       0.037968267 0.06299825 -0.15574305 -0.040471077
0000d0 57 66 57 bd a8 36 93 39 68 db 4c bc 29 33 30 be
       -0.052587833 0.00028078747 -0.012503482 -0.17207016
0000e0 05 a7 fa 3d fc c4 c4 bc 08 1d 94 bd ca b1 0b 3e
       0.12238888 -0.02401971 -0.072321 0.1364204
0000f0 f5 7e 2b be a4 80 4f 3d bb 2d fa 3d 9b 20 a1 3c
       -0.16747649 0.05065979 0.12215754 0.019668868
000100 e5 c7 6b 3d 31 4d d9 bd 1d 7a 9f 3d b4 ec 4e 3c
       0.05756368 -0.10610426 0.07786963 0.012629677
000110 6e 2a ef 3d 94 a6 0d be d2 52 c4 bd 78 22 18 be
       0.11678015 -0.13833076 -0.09586109 -0.14856899
000120 38 bc 90 bd 8c 6a 31 3e 90 b4 c6 bd ba 28 b8 bd
       -0.0706715 0.173258 -0.09702408 -0.08992143
000130 97 c5 8f 3d 6c f2 4b bd 77 49 37 be bc 22 87 bd
       0.07020109 -0.04979174 -0.17899118 -0.06598422
000140 6d 66 31 be 51 3c 57 bd 2a 9a 1e bd 45 ab e0 bd
       -0.17324229 -0.052547757 -0.03872124 -0.10970167
000150 86 c7 d4 3d 7e b4 5a bd 31 8d d6 bd 0c db 48 bd
       0.103896186 -0.053394787 -0.10476149 -0.049037024
000160 f5 c6 91 3d 5c 95 d3 bd b9 02 21 be cd 45 aa 3c
       0.07118026 -0.103312224 -0.15723695 0.020785237
000170 77 f3 ac bd c7 17 d7 bd 87 fa ea 3d 17 32 94 3c
       -0.08444875 -0.10502582 0.114735655 0.018090291
000180 8e 96 24 be 01 a0 82 bd e5 79 2b be aa 04 ae 3d
       -0.16073057 -0.063781746 -0.16745718 0.08496983
000190 1a bf 30 be cd 59 75 3d b2 15 9e 3d 93 08 9a bd
       -0.172604 0.059900094 0.07718982 -0.07521167
0001a0 c0 81 b3 bc 0a 33 99 3d 73 fe 82 bc 9a 0e 85 3d
       -0.021912456 0.07480438 -0.015990471 0.06496926
0001b0 23 9c ac bd 66 cb e2 3d 84 fb d1 bc 4f 90 31 3d
       -0.08428218 0.110739514 -0.025632627 0.043350514
0001c0 38 db 01 be 45 20 15 3e 68 28 3a bd c3 bf 0f 3c
       -0.12681282 0.14563091 -0.04544869 0.008773747
0001d0 0f 1e 54 3d 95 5a a1 bd cc e1 c0 bd 82 c8 9a 3c
       0.05178648 -0.07878605 -0.09418067 0.018894438
0001e0 e4 21 4e bd 1f 9f 3c be df 6e de 3c fa 73 4e 3d
       -0.05032529 -0.18420075 0.027152477 0.050403573
0001f0 f4 86 26 3e 83 0b 2c be 90 54 d7 bb 95 70 3e 3e
       0.16262418 -0.16801266 -0.00657136 0.18597634
000200 a6 6d 88 3d 6a 9b b8 bd 80 03 db bb cc 50 3d 3d
       0.06661539 -0.09014018 -0.006683767 0.046219632
000210 8d 66 8c bc d4 8f 39 3e 90 0b e3 3d 3f eb a3 3d
       -0.017138744 0.18121272 0.1108619 0.08003854
000220 23 cb c4 bd 52 a0 48 3d f1 51 bf 3c 39 3b d4 bd
       -0.09609058 0.04898102 0.023354502 -0.10362858
000230 fe 69 65 3d b0 bf 35 be d0 75 31 bd 76 f5 85 bd
       0.056009285 -0.17748904 -0.043325245 -0.065409586
000240 3c d2 a6 bd 3f ef 29 be 1d e5 e5 bb bb 93 e0 bd
       -0.08145568 -0.16595171 -0.007015838 -0.10965677
000250 df fe 6a bc bb 58 8a 3d b8 d9 a2 3d 02 17 35 be
       -0.014342993 0.06755205 0.07951683 -0.17684558
000260 60 3e 89 3b 56 5c 6d bc ee 1d 69 3d 87 ae 24 be
       0.004188344 -0.014487347 0.05691331 -0.16082202
000270 2d 62 3d 3e 1f 95 95 3d 6f be 0a be c6 12 e5 bd
       0.18494482 0.07303833 -0.13549207 -0.111852214
000280 9e 7d 07 bd a4 58 ab bd f6 6e ba bd 6d 08 0a be
       -0.033078782 -0.08366516 -0.09103195 -0.13479777
000290 a1 d8 05 be 5b ae 8f bd bb d3 38 3e 38 ba 01 be
       -0.13070919 -0.070156775 0.18049519 -0.12668693
0002a0 5a f2 0c 3e 4a 92 88 3d d3 26 cb 3c db 9f 50 be
       0.13764325 0.066685274 0.024798786 -0.2037348
0002b0 2a 2e 97 bd 01 57 32 3e 83 c8 45 3d 27 42 03 3d
       -0.07381852 0.17416002 0.048286926 0.03204551
0002c0 a0 c6 dc bd a0 c0 35 3c 42 63 92 3d f9 8a 15 3e
       -0.10780072 0.011093289 0.07147838 0.14603795
0002d0 ce a3 c8 bd b2 08 36 be 01 35 7e bd 69 b2 03 be
       -0.09796868 -0.17776754 -0.062062267 -0.12861027
0002e0 12 d1 31 be 77 9e 2c bd 17 08 a1 bc 65 b2 aa bd
       -0.1736491 -0.04214331 -0.019657178 -0.08334807
0002f0 f1 82 fa bc 4c 20 e2 3d 28 05 42 3e d6 16 d1 bd
       -0.030580016 0.110413164 0.1894728 -0.10209434
000300 1a ee d3 bd 49 56 f6 3a 97 63 a5 bd 24 86 ee 3d
       -0.10348149 0.0018794026 -0.08075636 0.11646679
000310 9d 83 2d 3e b7 f1 80 3d c8 e2 bb 3d 1c 34 e0 bd
       0.16944738 0.062961034 0.091741145 -0.10947439
000320 94 74 8b bd 20 6f 06 3d 85 5c 06 39 4c 1b 32 bc
       -0.06809345 0.03282082 0.00012813702 -0.010870766
000330 c7 85 44 bd 2f 13 87 bd 2f e6 c6 3d fc b1 9b bd
       -0.047979143 -0.06595456 0.09711873 -0.07602307
000340 0a fe 23 3e 0b f3 11 3c 26 eb ee bd 2a 6b 2b be
       0.16014877 0.008908044 -0.11665945 -0.16740099
000350 c8 36 bc bc a7 b3 d0 bd 59 02 22 3d af df 09 3d
       -0.02297534 -0.10190516 0.03955302 0.033660587
000360 ab 53 33 be d8 31 7e bd b3 0a 93 bd ac 12 29 3e
       -0.17512386 -0.062059253 -0.07179775 0.16511029
000370 da 49 57 bc c1 95 3d be b1 ef 89 3b 5f 32 1c 3e
       -0.013140166 -0.18514158 0.0042094816 0.1525359
000380 a5 fe 99 3d 53 13 07 be d7 a0 c7 bd b3 15 dd 3c
       0.07519273 -0.13190965 -0.09747475 0.026987886
000390 f7 29 2b 3d 73 fe 40 3d 55 4d 60 bd c6 5f b3 3d
       0.041788068 0.04711766 -0.05476125 0.08758502
0003a0 aa c8 7b bd 78 0f 02 3e 8d 7b 35 be 9f 39 c7 bd
       -0.061470665 0.12701213 -0.17722912 -0.09727787
0003b0 81 ce c1 bd 66 7b ab bc 86 07 ac bd b1 05 04 be
       -0.094632156 -0.020932864 -0.083998725 -0.12892796
0003c0 2f b0 43 3d 04 08 1b 3e b9 ac e2 bd 13 71 30 be
       0.047775444 0.15139776 -0.110681005 -0.17230634
0003d0 b5 2b b2 3c 30 8c 78 3d f2 1e 50 be ec 65 94 bd
       0.021749357 0.06068057 -0.20324305 -0.072460026
0003e0 47 1c 25 be 7c 2f d8 3d 42 4f 1b 3e d5 81 43 3e
       -0.16124068 0.10555932 0.15166953 0.19092496
0003f0 0b e7 11 3e a8 f1 00 bc 1f c2 25 be 9a f0 a5 bd
       0.14248292 -0.007870115 -0.16187333 -0.08102532

model.rnn.weight_hh_l1 f4 [160, 40]
000000 23 36 b4 bc f1 3c bf 3b df 34 aa bd 58 4f f4 3c
       -0.02199847 0.005836122 -0.083108656 0.02982299
000010 d4 ab 50 bd f5 12 e5 bd 04 a2 a1 3d 9d ae 96 3d
       -0.050945118 -0.111852564 0.0789223 0.073575236
000020 60 6a ea bd 63 63 0e be 5c 41 d4 bc 7e 85 97 3d
       -0.11446071 -0.139051 -0.025910072 0.073985085
000030 03 61 c6 3c e5 63 fa bb af c7 4f bd 23 7b d0 bd
       0.02421618 -0.007641303 -0.050727542 -0.101797365
000040 09 88 7d 3d dc ad 00 3e ac 5e a4 bd 86 39 13 3d
       0.06189731 0.12566322 -0.0802587 0.03594353
000050 ea 98 2a be 9e bc 9a bd 9b 8d 69 3d ea 58 07 3e
       -0.16659895 -0.07555507 0.05701981 0.13217512
000060 d0 2d 26 3e 8a 18 09 be 74 7e cb 3d 36 af b2 bd
       0.16228414 -0.13388267 0.099362284 -0.08724825
000070 9f e2 e0 3c 51 fc 3e be 32 f3 1b 3e dd 6f aa bd
       0.027451811 -0.18650939 0.1522949 -0.083221175
000080 f4 8a c4 bd cd f4 b0 3d d4 ba cc 3d 85 58 e3 3d
       -0.09596816 0.08640442 0.09996572 0.11100868
000090 a3 84 ae bd 23 1d b7 3d e3 0f 36 3d d2 16 23 be
       -0.08521392 0.08941104 0.044448745 -0.15926674
0000a0 10 49 01 3e 6e 8f 92 bd f9 d1 ee 3d da 6e 4a 3d
       0.12625527 -0.07156263 0.11661143 0.049422123
0000b0 21 7d 6c 3d e8 ee 16 3b 90 ea 84 bc 1f 8b 03 3e
       0.05773652 0.0023030583 -0.01622513 0.12846039
0000c0 f4 98 b9 bd ab 67 cb bc 07 29 8c bd da ee d8 3d
       -0.090623766 -0.024829706 -0.06843763 0.10592432
0000d0 36 fa 0c 3e 85 19 26 bd 57 72 b6 bd aa c9 99 bd
       0.13767323 -0.04055168 -0.08908527 -0.075091675
0000e0 89 99 a0 bd 52 dd c7 3b 32 a5 1f be 1e b1 ee bd
       -0.078417845 0.0060993815 -0.15590361 -0.11654876
0000f0 87 50 fd 3d 3d 5d b9 3d 01 65 05 3c c0 4d f9 3d
       0.12368875 0.09050987 0.008141757 0.12173033
000100 39 36 29 3d d4 81 d3 bd 14 cb 97 bd 7a 9a 38 3c
       0.041311476 -0.10327497 -0.07411781 0.011267299
000110 c2 74 23 3e 01 da f9 3d da f3 df 3d 20 de e7 bc
       0.15962508 0.12199784 0.10935183 -0.02830416
000120 9e c1 d1 3d 97 e5 07 be fc 1a f4 bd f7 ee bd 3c
       0.10242008 -0.13271175 -0.11919209 0.023185236
000130 2b 6d 4a bd 53 2d 02 be 7c e2 3d 3d 1a 9f 5b 3d
       -0.049420517 -0.12712602 0.04635857 0.053618528
000140 a3 4d c2 bb 23 e4 a5 bd 08 69 4a 3e 43 7a 2f bd
       -0.005929665 -0.08100154 0.19766629 -0.042841207
000150 5c 28 59 3b a4 f1 d2 bd 7e dc 11 be 29 c5 f4 bd
       0.0033135628 -0.102999955 -0.14244267 -0.11951668
000160 7f e6 32 3d 7d 73 ef bc cd ea 3f 3d 2f ca 11 be
       0.04367685 -0.029229874 0.046854783 -0.14237283
000170 29 23 90 bd a5 dc 8e bc ef 0a 2f 3d 24 cd 05 be
       -0.07037956 -0.017439196 0.042735036 -0.13066536
000180 c8 5e a9 b9 49 5e 3e be 6a 97 97 bd d9 c4 80 bd
       -0.0003230481 -0.18590654 -0.07401927 -0.06287546
000190 fa 51 71 3d d7 2f 09 bc 05 05 f0 bd a9 84 29 3d
       0.05891607 -0.008373222 -0.117197074 0.04138628
0001a0 f2 fc a1 bd 48 77 8c 3d 00 f9 51 bd 46 44 10 be
       -0.079095736 0.068586886 -0.051262856 -0.14088544
0001b0 a9 07 29 3d 5a 34 8e bd 18 fd 8a 3d fa ba d5 bd
       0.04126707 -0.06943579 0.06786555 -0.104360536
0001c0 0e dc 4b bc 0f 20 7e 3c 0a a1 04 3d 61 c5 f1 bd
       -0.012442602 0.015510573 0.03238014 -0.11805225
0001d0 01 ae c6 3d 0e 91 9a 3d 74 ea ba 3d f8 a1 47 3c
       0.09701157 0.07547198 0.0912675 0.012184612
0001e0 25 93 18 bb 35 a5 ec 3d fb f7 ff bd 3f 76 b4 3d
       -0.0023281064 0.11554948 -0.124984704 0.08811616
0001f0 9e fc 43 be 4e e5 06 3d 6f 7a 4f 3c b7 fb 2e be
       -0.19139335 0.032933526 0.012663468 -0.17088209
000200 f7 15 c7 3d e1 e5 2f be ad d5 de 3d cc 08 09 be
       0.09720986 -0.17177536 0.10880599 -0.13382262
000210 d8 2e b6 bd 86 cb cf 3c 10 5f b2 bd 80 0a db 3d
       -0.088956535 0.025365602 -0.08709538 0.10695362
000220 be f7 18 be 52 60 3e be 50 9c 08 3b fd b9 64 3d
       -0.14938256 -0.18591431 0.0020845123 0.055841435
000230 76 c4 0c be 8d 11 06 3e 39 71 99 3b a8 1d b4 bd
       -0.13746819 0.13092633 0.0046826866 -0.08794719
000240 de 03 ae bd 59 b3 ad bc 17 24 c6 bc 4b 10 a4 3d
       -0.08496831 -0.021203684 -0.02418713 0.0801092
000250 a2 47 36 3e 1c 3b 21 be eb 98 1a 3e e8 de c9 bd
       0.17800763 -0.15745205 0.15097396 -0.09856969
000260 04 cd 90 bc 73 12 22 3e c9 cf 82 bd da 2d de bd
       -0.017675884 0.1582735 -0.06387288 -0.10848589
000270 6d a7 84 bc b7 79 5c 3d 4d b8 f7 3c ae 26 fe 3d
       -0.016193116 0.053827014 0.030239249 0.12409721
000280 78 77 88 bd b1 cd 34 3e 57 2d 5c 3d 06 89 c9 3d
       -0.06663412 0.1765659 0.053754177 0.09840588
000290 26 d8 1a bb 88 4b ab 3d b1 b7 9a bd 0a 5c b4 bd
       -0.002362737 0.08364016 -0.075545676 -0.088066176
0002a0 31 8b 01 3e 5c e0 1b be 35 1d 81 bd bf ad ce 3d
       0.12650754 -0.15222305 -0.06304399 0.10091733
0002b0 07 67 ad 3d 02 18 24 3a bb 3b 40 bd c3 04 df 3d
       0.084669165 0.0006259681 -0.046931963 0.1088958
0002c0 cf 6b fb bc eb fb d7 bb e6 5a dc 3d 61 1e 8b 3d
       -0.030691056 -0.0065913103 0.10759525 0.06792904
0002d0 38 c4 db bd 61 b4 d8 bd 04 2b fe 3d 27 52 0c 3b
       -0.10730785 -0.105812795 0.12410548 0.0021411271
0002e0 40 ed 91 3d 70 fb 10 3e 02 bf 28 3d f5 f3 30 3d
       0.0712533 0.14158416 0.041197784 0.043201406
0002f0 ec e6 87 3a e7 4e 01 be 12 dc e8 3d 7d 7b 17 be
       0.0010368503 -0.12627755 0.113701 -0.14793201
000300 31 a9 6d ba 8a 96 ce bd 1f ea 4a 3e b8 0c 77 3d
       -0.0009066044 -0.10087307 0.19815873 0.060314864
000310 d6 07 48 be ed f6 3e 3d 5e 74 c0 bd 7b bb e6 3d
       -0.19534239 0.046622206 -0.09397195 0.11266228
000320 aa 17 91 bd 23 95 01 be 0a 7c b0 3d 9c 54 4b 3d
       -0.07084592 -0.12654547 0.086174086 0.049641237
000330 39 6d 3e bd 59 01 ad bd fe 06 cf 3d 99 37 e3 3c
       -0.04649088 -0.08447523 0.101087555 0.027736472
000340 1f dd 51 3d f4 6b 74 3d ff 62 e7 3c 52 40 d4 3c
       0.051236268 0.059673265 0.028245447 0.025909577
000350 2e fe b7 3d e0 81 cc 3d a4 eb a7 bd 4f 9b 30 3d
       0.08984028 0.09985709 -0.08199242 0.043116864
000360 01 dc e8 bd 86 e8 1d be e4 5d 9d bd 92 bc 05 3e
       -0.113700874 -0.15420732 -0.07683924 0.13060215
000370 29 d8 aa bd b8 87 5f bd 30 c7 bb 3d 93 9d 0e 3d
       -0.083420105 -0.05457279 0.091688514 0.034818243
000380 68 b1 0f 3e 19 43 81 3d 92 41 9f bd 96 2b f8 bd
       0.14032519 0.06311626 -0.077761784 -0.12117688
000390 79 34 ae bd 95 1c a0 bd fe 92 1f 3e 8d b5 a3 bd
       -0.08506102 -0.078179516 0.15583417 -0.079936124
0003a0 99 31 03 be fe 26 ad 3d f8 25 13 be d0 7e be 3d
       -0.12811889 0.08454703 -0.14369953 0.09301531
0003b0 83 5e 09 bd 6d 8a 9d 3d f9 61 20 3e fd 77 ad bd
       -0.0335374 0.07692418 0.15662374 -0.084701516
0003c0 97 f4 bb 3d 18 80 b8 39 ee 3c 04 bd 9c 68 8e 3d
       0.09177511 0.00035190652 -0.03228467 0.069535464
0003d0 b5 dc b1 bd 4b f9 6c 3d 3b 48 8e 3c b1 95 cc 3d
       -0.08684675 0.05785493 0.017368427 0.09989489
0003e0 a2 30 01 bd cd 1e 13 3d 6a 94 0d 3e 93 74 8d 3d
       -0.03154052 0.035918046 0.13826147 0.069070004
0003f0 69 c5 c2 3d 7d ea 8e bd c7 5d 1e 3e 26 28 39 bd
       0.09510309 -0.06978319 0.1546546 -0.045204304

model.rnn.bias_ih_l1 f4 [160]
000000 35 a7 d2 bd 30 f8 cd bc 79 26 e0 3c c8 0a a2 bd
       -0.102857985 -0.02514276 0.027362095 -0.079122126
000010 6c dd 4e bd 37 6b ab 3d 68 d3 db 3c 21 d3 a2 3d
       -0.050504133 0.08370059 0.026834205 0.07950426
000020 2b 5f ad bd 98 b6 5f bc ea 7f 44 3d d8 95 e1 3c
       -0.084654175 -0.013654374 0.04797355 0.027537271
000030 1e 41 2b 3e 25 10 bb 3c 7f 6a d9 3d 93 fe b6 bd
       0.16724059 0.022834847 0.10616016 -0.08935275
000040 0e 7d f4 bd a7 ff 35 3e 97 af e2 3d e4 f5 c5 3d
       -0.11937915 0.17773305 0.11068647 0.096660405
000050 97 2a 10 3e 7c 6c f9 bc 83 43 46 3d d0 4d 5a 3d
       0.14078747 -0.030447237 0.048404228 0.053296864
000060 4b f4 1f 3d 6c 66 f1 3a e5 f7 fa bc 52 16 c8 bd
       0.039051335 0.0018417365 -0.030635783 -0.09769882
000070 85 54 11 3e c4 3b 06 bc f8 03 33 3e 05 52 e4 bc
       0.14192398 -0.00819296 0.17481983 -0.027871141
000080 77 5b c0 3d b6 fc 10 3e d4 86 52 bd 83 97 53 bd
       0.093924455 0.14158902 -0.051398113 -0.051658165
000090 79 43 08 bd a7 0f 7b bc 74 dc 13 3e 95 8f e1 3d
       -0.033267472 -0.015323556 0.14439565 0.11013714
0000a0 46 49 02 bd cf f8 37 3e 1c 84 d9 bd 8e f8 da 3d
       -0.03180816 0.17966007 -0.10620901 0.10691939
0000b0 39 f4 28 3d 2d 02 32 3e 8e 9f 2e be c5 c1 35 3e
       0.041248534 0.17383642 -0.17053053 0.17749698
0000c0 5a be ea bd 21 27 79 3c 82 91 56 3c 87 da 9e 3b
       -0.11462088 0.015207083 0.013096215 0.004847828
0000d0 83 fe 2c 3d 12 99 82 3d aa ca b8 3d 83 de 95 3d
       0.04223491 0.06376852 0.0902303 0.07317831
0000e0 6e 00 b7 3d 44 cb 16 3e 78 e6 98 3d 20 7a 8a 3c
       0.08935629 0.14725977 0.074658334 0.016903937
0000f0 7e a6 7e bd 7f 88 81 ba 60 48 2a 3e 5f 6e 93 3d
       -0.062170498 -0.0009882598 0.16629171 0.07198786
000100 b1 44 12 bd 57 6a 1e 3e 88 ee 29 3e 7b 42 2a be
       -0.03571004 0.15470253 0.16594899 -0.16626923
000110 de 4b da 3c aa 90 0b be 0c 9c 84 bd da 6b 13 be
       0.026647504 -0.13629404 -0.06475076 -0.14396611
000120 e2 e0 01 3e 7d fd cf 3d 4d 21 09 be a7 46 4c 3d
       0.12683442 0.10155771 -0.1339161 0.049872067
000130 86 b5 39 3d 2f 8d 0f 3d 47 06 5d bd 3c 5a 8b 3d
       0.04533913 0.035046753 -0.053961065 0.0680432
000140 4c b2 b2 3d c7 84 09 3e 14 3f 22 3d bd 70 46 3d
       0.08725414 0.13429557 0.039610937 0.04844736
000150 01 f1 d6 3d f6 6a 2e be 0c 99 ca 3d 93 10 fa 3b
       0.104951866 -0.1703299 0.098924726 0.0076313703
000160 0f d8 7c 3d 5e 95 a8 bd 33 62 aa bd 20 bf f7 3d
       0.061729487 -0.082316145 -0.08319511 0.12097001
000170 6c 3e de bc 15 ca 08 3e 0d 92 15 be db ee 0e 3e
       -0.027129374 0.13358338 -0.14606495 0.13958304
000180 4e bd 02 be a5 2d eb bd 0f c4 c8 bd 38 c5 ac bd
       -0.12767527 -0.114833154 -0.0980302 -0.08436054
000190 ce ec b0 bd df 16 7e bd f5 b8 85 bc 73 c3 0d be
       -0.08638917 -0.06203353 -0.016323546 -0.13844089
0001a0 96 08 ad 3d 5b 00 3a bd 9f 02 33 3d d8 78 9a 3c
       0.08448903 -0.045410495 0.04370367 0.01885645
0001b0 7f 90 70 3d 3f 3e 9a bc c7 00 cd 3c 2e df 25 bd
       0.058731552 -0.01882851 0.025024785 -0.040496044
0001c0 ca 51 02 3e 3a 7d 32 3e 2d 80 ec 3a 8a 61 b5 3d
       0.12726513 0.17430583 0.001804357 0.08856495
0001d0 0e 82 82 3d b8 1c e8 bd 96 7d 14 3d 4d 75 03 ba
       0.06372462 -0.11333603 0.03625258 -0.00050147326
0001e0 57 52 67 bd 93 39 3a 3c b9 6c d4 bd 71 10 3d 3e
       -0.05647501 0.011366266 -0.103723 0.18463303
0001f0 9d 8b 97 3d b0 5a 43 3e a8 0b b6 bb 8f 00 8e 3d
       0.07399676 0.19077563 -0.0055555888 0.069337
000200 55 20 95 3d 57 f7 e4 bd 91 ad e5 bc fa 60 14 3e
       0.072815575 -0.11179989 -0.028036864 0.14490119
000210 e9 ce 2a 3e 39 fd c4 3d 3c fe 9d bd 69 cb 31 bc
       0.16680492 0.09618611 -0.07714507 -0.010851719
000220 93 fc 2a 3e 66 11 5d bd d8 e7 28 be 11 42 96 3d
       0.16697912 -0.05397167 -0.16494691 0.0733682
000230 75 bd 24 3e b8 1a ed bd 6a 3e 05 3e 93 f8 4b 3e
       0.16087897 -0.11577362 0.1301209 0.19919042
000240 a3 9f 1d be 6c fb cb bd 8e ca 9d bd bb 80 c2 bd
       -0.15392928 -0.09960064 -0.0770465 -0.0949721
000250 cc fa 9d bd 20 9b 8f bc 4d 82 86 bd 87 a2 f1 bd
       -0.07713851 -0.017530024 -0.06567822 -0.11798578
000260 f1 f6 76 bd 4c 32 12 be c9 82 b3 3c d8 3f 0e 3e
       -0.060294095 -0.14276999 0.02191295 0.13891542
000270 f1 f4 0a 3e ba 96 d2 bc 85 b1 0c 3e 15 a4 7a bd
       0.1357 -0.025706638 0.13739593 -0.061191637

model.rnn.bias_hh_l1 f4 [160]
000000 a7 66 8b 3d 1e 85 35 bd 42 ef 0f 3e 82 01 ee 3d
       0.06806689 -0.044316404 0.14056113 0.11621381
000010 73 bc d9 3d 7a 3f b1 3d 3a ce 01 3d bf 9f ca 3d
       0.10631647 0.08654685 0.031690814 0.098937504
000020 6d 27 e5 bd bc 23 4d bd 15 1a 3a 3e e7 51 02 bd
       -0.111891605 -0.050082907 0.18174012 -0.03181639
000030 4d 8c 05 3d d5 6c 8c 3d 82 35 6f bd b5 38 4e bd
       0.032604504 0.068566956 -0.05840064 -0.05034705
000040 f4 e3 a7 3d a4 81 80 3c 3f c8 de bd 1b 83 05 3e
       0.081977755 0.015686817 -0.10878038 0.13038294
000050 74 89 3b 3e 29 6e 06 3e 7b 7d 3d 3e 9a d1 80 3d
       0.18314153 0.1312796 0.18504898 0.06289978
000060 c4 41 06 3e 86 03 fa bd 56 e1 20 bd 82 59 a7 bc
       0.13111025 -0.12207703 -0.039277397 -0.020428423
000070 0a c5 a6 3d 8d f3 8e 3d 60 18 2f 3e 0c dd 1e 3e
       0.08143051 0.069800474 0.17099142 0.1551401
000080 a9 19 f2 bd bc 78 4b bd 35 a7 37 3b a8 71 b5 3d
       -0.118213005 -0.04967569 0.0028023247 0.08859569
000090 c5 40 41 3d 2c f6 04 3e 9c 30 1a be 7b fd 03 be
       0.04718091 0.12984532 -0.15057606 -0.12889664
0000a0 6c 79 34 3e dc 0d ad 3d 2c 8d 52 3c 87 ec 8e 3d
       0.17624444 0.08449909 0.012851041 0.06978708
0000b0 05 d5 1d 3e 8b 23 1d bc 37 d7 13 3d da 99 b0 bd
       0.15413292 -0.009590994 0.036093917 -0.08623095
0000c0 40 b0 8f bd 48 f3 cc 3d fb d0 0e 3e d8 e5 5e bd
       -0.07016039 0.1000734 0.13946907 -0.054418415
0000d0 5c fa 0c 3d e9 60 cc bd dc 5d 17 bd 19 89 da 3d
       0.03441845 -0.09979422 -0.036954746 0.106706806
0000e0 72 12 af 3d 2d fd 81 3c 0c df 80 3d b7 db 33 3b
       0.0854844 0.015867794 0.06292543 0.0027444193
0000f0 aa 5a 54 3d 92 a4 96 3d 32 06 37 39 74 db d8 bd
       0.051844276 0.07355608 0.00017454548 -0.10588732
000100 97 cb 10 bd 1d 87 f4 3d a2 03 fd bd f6 01 ee 3d
       -0.03535041 0.11939833 -0.123542085 0.11621468
000110 6f 28 b0 3d 4b 78 f9 3d 3f f4 d2 3d a2 8c f7 bd
       0.08601462 0.12181147 0.103004925 -0.120873705
000120 35 81 c8 3c 49 4f 7f bc f7 18 78 bb bd ac b1 bd
       0.024475673 -0.015582868 -0.0037856677 -0.08675525
000130 ea 6b 83 3d 7e f2 25 3e e5 c1 1e 3d 70 6d ef 3d
       0.06417067 0.16205785 0.03875913 0.116907954
000140 0f ff 86 3c b8 d9 91 bd cc 2f 5b bd fc 5b 26 be
       0.016479043 -0.07121605 -0.05351238 -0.16246027
000150 cd e5 64 bc 6d 98 38 be dc c5 bf bd cb de 0b 3c
       -0.013970804 -0.18026896 -0.093639106 0.008537005
000160 eb fd b1 bd e0 e0 f2 3d 46 30 bc 3a f9 db df bd
       -0.08691009 0.11859298 0.0014357648 -0.10930628
000170 65 ae 7e bc f1 83 05 be e0 88 2f 3d 52 74 b7 bd
       -0.015544509 -0.13038613 0.042855144 -0.08957733
000180 11 73 cc bd 34 06 19 be fc be 42 3d ea 35 08 be
       -0.09982885 -0.14943773 0.04754542 -0.13301817
000190 24 e1 e5 bd 65 7b ff bc 3c 89 c3 bd 55 cb 98 bd
       -0.11224583 -0.031186769 -0.0954766 -0.074606575
0001a0 f1 08 07 3e 28 b8 9a 3d 32 08 27 be 62 92 7b bd
       0.13187005 0.07554656 -0.1631172 -0.0614189
0001b0 b1 a3 3e bd d0 5d 96 bd 70 8a c1 bd 52 1f d6 bd
       -0.046542827 -0.07342112 -0.09450233 -0.104551926
0001c0 be 80 43 3d 35 2a 6f bd 3e 66 df bd 38 28 80 3d
       0.0477302 -0.05838986 -0.10908173 0.06257671
0001d0 b7 cc 9a bd 2a b0 3d bd 8e ad 21 3d 55 dd bf bd
       -0.075585775 -0.04631058 0.039472155 -0.093683876
0001e0 be a0 bc bd 52 25 4d 3e 87 c8 9e 3b c5 6c 23 3e
       -0.09210347 0.20033768 0.004845682 0.15959461
0001f0 b9 96 f3 3d d6 97 a5 bd d2 f1 e9 bc f5 84 ae bb
       0.118939824 -0.08085601 -0.028557692 -0.0053259083
000200 25 ed 18 3c e4 d1 1d 3e ef c2 ab 3d a8 8c a2 3c
       0.009333883 0.15412098 0.0838679 0.01984246
000210 85 61 b5 3d 57 8b 1d 3e 38 c7 dc 3b 5c 4e 64 bc
       0.08856491 0.15385185 0.006737616 -0.013934698
000220 b7 87 ed 3d ac 4d 75 bb 2f 32 f6 bd 9f 1a b5 bd
       0.11598151 -0.003743033 -0.120212905 -0.08842968
000230 94 c7 f3 3d 14 cc a9 bd 02 1f 14 3e 77 a6 bc 3d
       0.11903301 -0.08290878 0.14464954 0.09211438
000240 aa bd 0c 3d 84 f1 53 3e bf 23 06 3e 21 03 28 be
       0.034360565 0.206976 0.13099574 -0.16407444
000250 5e 23 db bd 4a ba 25 3c 94 28 57 3d a7 fb cb 3d
       -0.10700105 0.010115216 0.052528933 0.09960108
000260 57 de 3c bd db 0b ee bd 2c 87 d0 bd 08 4c 05 3e
       -0.046110477 -0.11623355 -0.10182032 0.13017285
000270 fe fe 16 bd 08 96 15 3e 1c f0 1a 3d 53 97 b2 bd
       -0.036864273 0.14608014 0.037826642 -0.08720269

exp_avg f4 [1, 40]
000000 16 40 4f 3a 1c e2 86 3a d9 15 73 3a 00 62 89 ba
       0.0007905973 0.0010290775 0.000927297 -0.0010481477
000010 fc 09 8b ba a8 ce 88 ba 1c 84 6d 36 d0 e4 81 ba
       -0.0010607834 -0.0010437565 3.539265e-06 -0.000991011
000020 40 7e 04 b6 cd d5 7a ba 53 37 8a ba aa c5 86 ba
       -1.974302e-06 -0.0009568602 -0.0010545052 -0.0010282297
000030 3a be 89 3a 6c b0 97 b9 66 ef 8b ba 9d a3 e6 b7
       0.0010508962 -0.0002893241 -0.0010676205 -2.7494325e-05
000040 20 c5 8b ba 22 9a 89 ba 28 c9 64 37 87 51 53 b7
       -0.0010663606 -0.0010498206 1.3636694e-05 -1.2595562e-05
000050 20 f1 85 ba ae c2 6d 38 85 0d 82 ba 20 46 8d ba
       -0.0010218956 5.6686513e-05 -0.0009922242 -0.0010778345
000060 85 da 63 39 7f 14 88 3a 5d 5a 87 ba 19 3d cd b8
       0.00021729812 0.0010382085 -0.0010326613 -9.786542e-05
000070 c4 bf 57 b8 cb 69 46 ba 19 24 79 3a 46 c2 bf b9
       -5.143859e-05 -0.0007568865 0.0009503975 -0.00036575104
000080 2b 2e b5 b9 e6 5a 46 39 7b 4c 77 3a 35 6d 8b 3a
       -0.00034557408 0.00018916614 0.0009433699 0.0010637405
000090 bb 2e 79 ba 66 0f b4 ba 6b 1f 68 38 d0 5e 41 3a
       -0.00095055596 -0.0013737499 5.534237e-05 0.0007376494
