homework13/lightning_logs/version_1/checkpoints/epoch=2-step=150.ckpt (torch, 321567 bytes, 33 tensors)

model.param_proj.proj.0.weight f4 [1, 40]
00000000: 1d3b 6abc 594c b13d 7dac bc3d d0bf c73d
00000010: 698e 18be c5ff 1cbe 88bf 4e3c be43 643c
00000020: ea82 033e f093 653d 117a fc3d 7553 c0bc
00000030: 66a8 a7bd 7063 b13d e297 18bd 882b 813d
00000040: f2eb 443e 22dc 1b3c 1ba4 92bc 4ac2 593e
00000050: d557 203d d433 973d e3bc 373e dce5 f4bd
00000060: 3bf9 19be 4c6d debd 02b0 333e 34af 06be
00000070: 49a5 f13d e4ab eabd b84e de3c 497f 05bd
00000080: b508 d13d a6b2 9e3d a845 71bd 3cf9 41bd
00000090: d2f2 463e 47ad 07bc 6017 073e 6792 a83d
-0.01429632 0.0865714 0.09212587 0.09753382 -0.14898075 -0.15331943 0.012618907 0.013932167
0.12842909 0.056049287 0.1232797 -0.023477295 -0.08186416 0.08661544 -0.03725422 0.06307131
0.19230631 0.009512933 -0.017900517 0.21265522 0.039146263 0.07382932 0.17943148 -0.11957905
-0.1503648 -0.108606905 0.1754761 -0.13152772 0.11799104 -0.11458567 0.027137145 -0.03259209
0.10206739 0.07748918 -0.05890432 -0.04735683 0.19428566 -0.008281059 0.1319251 0.08231049

model.param_proj.proj.1.weight f4 [1, 40]
00000000: c733 d6bd a262 613d 797e a63d 87a7 013e
00000010: 2b59 483b afb0 37bd 9e98 18be a3b7 043e
00000020: 84f0 72bd 221b 073e bdb4 06be c408 fb3d
00000030: 38d1 373d 9c2a cd3c ce00 3dbd efa1 11bd
00000040: 19ed c83d d059 0dbe 49e9 dbbd 8a01 86bd
00000050: 5822 133e adea 883d 3f1e 9b3d a443 80bd
00000060: 42b6 a6bb a7d5 02be 63a7 84bd b0e1 40bd
00000070: 293b e2bd d2eb 04be 0ba9 063e 445f de3c
00000080: 458a 013e 9052 ea3d 3d5b debd 62e7 86bd
00000090: e64f ec3c 811f 8f3d 04e7 b5bd 75bc a73d
-0.104590945 0.055025704 0.081295915 0.12661563 0.0030570726 -0.044846233 -0.14901969 0.12960677
-0.059311405 0.13193944 -0.13154884 0.12257531 0.04487726 0.025044732 -0.046143346 -0.035554823
0.09810848 -0.13803792 -0.10737855 -0.06543262 0.1436857 0.06685386 0.07574128 -0.062629014
-0.005087645 -0.12776814 -0.06477239 -0.047090232 -0.1104644 -0.12980583 0.13150422 0.027145036
0.12650402 0.11441529 -0.10857246 -0.065871015 0.028846692 0.06988431 -0.08881953 0.08190242

model.param_proj.proj.2.weight f4 [1, 40]
00000000: 4e33 a33c 271a 953d 56d1 0cbe 10bf ff3c
00000010: b851 f63c dc57 edbd 61e3 9abd 8539 90bd
00000020: 97f4 bcbd deeb cf3d 3cab 41be c9ee ddbd
00000030: a421 0fbe 57a1 53be d012 a2bd ad69 133e
00000040: 1789 06be 1b30 193e d8f6 11be 2496 2cbe
00000050: 4584 2cbe 38bb 3fbe cd2c 4dbe d4ee 9b3c
00000060: cafc 92bc 8762 403e 6890 19be 0da5 3cbd
00000070: 7e1e 0b3d fa2f 083e bed0 01be ca9e 61be
00000080: b639 943d 1c29 09be 8e1e 2b3e 892b 54be
00000090: 06ec 62be ebb9 0bbd fc5a c8bd 315a 00be
0.019921925 0.07280379 -0.1375173 0.031219035 0.030068263 -0.115890235 -0.075629 -0.07042221
-0.09226339 0.1015241 -0.18912977 -0.1083656 -0.13977677 -0.20667015 -0.079137444 0.14395781
-0.13138233 0.14959757 -0.1425432 -0.16854149 -0.16847332 -0.18723762 -0.20036621 0.01903478
-0.017942805 0.18787585 -0.14996493 -0.046055842 0.033964626 0.13299552 -0.12677285 -0.2203323
0.0723757 -0.13394588 0.16710874 -0.20719732 -0.22160348 -0.034112852 -0.09782979 -0.12534405

model.rnn.weight_ih_l0 f4 [160, 32]
00000000: 8376 093e ab7e 20bd 3bb4 8abc 3210 0cbe
00000010: 1a23 a73d 1931 9abd 801c a9bc b904 0c3e
00000020: 1a51 d3bd 5f36 d13d 073f 183e 7469 cebd
00000030: d090 013e 77b8 303e bea2 c2ba b905 a0bd
00000040: 1b25 043e 5b1d 243e 72f1 083e d22b c23d
00000050: f6ac e7bd a965 973d 24d3 453c faf2 fa3c
00000060: 3cd2 753d aa4c 53bc ac3e 0dbe 38bd dbbc
00000070: deaa cabb da25 b8bd 49c5 b53d 3bbe 79bb
00000080: 2df7 dbbd 2fa6 883a daf3 5a3c 49c1 043d
00000090: 701f ae3c 1e46 3abd a71c 89bd 28f2 e73c
000000a0: 8ab0 22bd fb65 163d 0820 2a3e b209 09be
000000b0: d5d9 d1bc 8e77 06be 038d 17be 3ab0 143d
000000c0: 5824 193e 9b83 b6bb 2fd0 d23c c60d b5bd
000000d0: 66df 14be d6a8 ac3d c4fd a3bd a9ee 9dbc
000000e0: 1e05 f7bc e6a7 db3c 3103 c43c f161 14be
000000f0: f620 0f3c 6273 c23d 7be5 053e 21cc 09be
00000100: 4e8b 253d 44b6 e03c 5f47 c1bc be5f 5d3e
00000110: f241 0bbd 3c74 083e 5619 443e af44 443e
00000120: 22fd 8bbc e574 84bd 7d43 9b3d cb42 95bd
00000130: 5c27 ddbd 1829 a9bd b0b0 213d 9a76 263d
00000140: af55 323e d6ad 80bd a415 1c3e 7944 a6bd
00000150: 6592 443d 9c3f a0bd 46ff 06be 08ec 7cbd
00000160: 9e39 843d 6b24 55bd 0dc1 063d 9205 af3d
00000170: 92b6 19be ae83 0dbe 8234 26be 9a2c 4c3c
00000180: f1fa 073e 7409 4bbd d547 ddbd 8915 ccbd
00000190: aa3b 173e 62cd b7bd fc36 50bd 9198 853d
000001a0: 2107 39bd 833a e0bd 18d2 f43d 821d 5a3d
000001b0: 358c c7bb fa5a 09bc 38c4 1e3e 8f6b 60bd
000001c0: e959 4cbd 441b b63b 4878 c6bb 15d7 afbd
000001d0: 44ee 983d 0eff 0abe 346a 2dbd 6dc8 913d
000001e0: 0d99 4fbc 5ed6 013e 6608 2e3d 4c87 3cbe
000001f0: afe7 123e d9a2 3abd c0e7 dabd ae92 cdbd
00000200: 13da 67bd c609 87bd 8654 2a3e 1ef6 993d
00000210: f58c 7e3d b51b 7a3d 3a08 4bbd accd babd
00000220: 1337 5abc 5119 003e e41a 133e 3c5e 183e
00000230: fede 093e 04e7 f0bc 3268 3d3d 492b db3d
00000240: b4c9 c73d f17a 43bd 9615 4abd f488 683d
00000250: 4184 2c3d 6355 c33d bcda 2bbd 2282 3f3d
00000260: 79c2 08be 6cd0 cebd c796 f03d a2d8 fc3d
00000270: 8b16 22bc b666 46bc 0b8c c3bd 97fa 65bd
00000280: 5ce8 b2bd 1eee c83d f34b 033e ced1 aabd
00000290: 59b9 2e3e 9553 e7bd d1b3 a73d 7738 693d
000002a0: 1379 03bd 9215 9abd fb46 013e 7120 2e3e
000002b0: c4b8 52bd c8e0 2d3e a474 47bd 7824 29bd
000002c0: a754 993d 158c ab3c e713 643d 5baa 79bd
000002d0: 783c bb3c 1992 233d 77e2 ef3c 4240 a1bd
000002e0: e30b bf3d 1a86 a7bc 284b fabd ec26 0e3d
000002f0: 49c5 2a3d 5adc 0fbd c1b4 f4bd 1015 95bc
00000300: 6b58 a3bd 192b da3d 5ff8 023e 6dd3 bcbc
00000310: d1e1 d4bd 90c6 e63c 46d2 c6bd 4d6f ee3c
00000320: d2d8 ad3d 465e f3bd b70a 92bd 714e bebd
00000330: a9df 0f3e 87d8 c33d 5227 933d 52a6 0cbe
00000340: 628a b03d 18b1 81bd 0367 423d f299 1b3e
00000350: 79ae 87bd e789 a93c 881a 1c3e d383 bcbd
00000360: 577e 733d 4c4d 9d3d c492 ef3d 2701 f13d
00000370: cf67 3ebc cca9 c73d 04d1 163e 5443 903d
00000380: ff09 913d e621 263d 4f91 0c3e 2af5 093e
00000390: 6f38 1c3e a30d 3a3c 6379 f9bd ba9b 013d
000003a0: 5aaa 273e 9ca8 263e c489 a4bc dec4 5d3d
000003b0: e359 ad3d a51b 70ba 579d 0bbc f696 41bd
000003c0: eee7 263e 9c87 8cb7 6340 a13d 090b eebd
000003d0: a3ca 053e 6aa1 6cbd f316 adbd f71b 8f3c
000003e0: 496f dbbc 7732 f1bd e658 333e 640b a9bd
000003f0: dc79 003e 59b4 113e 0325 33bd 8e58 11be
0.13424115 -0.0391833 -0.016931644 -0.13678053 0.08160992 -0.07528896 -0.020643473 0.13673677
-0.10318203 0.102154486 0.14867793 -0.10078707 0.12652898 0.17257868 -0.0014849526 -0.078135915
0.1290478 0.16026823 0.13373354 0.09481014 -0.113122866 0.07392437 0.012074266 0.030633438
0.06001495 -0.012896696 -0.13793439 -0.026823625 -0.0061849197 -0.089915946 0.0887552 -0.003810777
-0.107405044 0.0010425503 0.013363803 0.032410894 0.021255225 -0.045477025 -0.06694918 0.028313711
-0.039719142 0.03671835 0.16613781 -0.13382605 -0.025616566 -0.13131544 -0.14799885 0.036300875
0.1495527 -0.005569888 0.025734035 -0.08840518 -0.14538345 0.084306404 -0.08007386 -0.019278841
-0.030153807 0.026813459 0.023927303 -0.14490487 0.008735886 0.09494664 0.13075821 -0.13456775
0.040416054 0.027430661 -0.023593603 0.21618554 -0.033998437 0.1332559 0.1915029 0.19166826
-0.017088477 -0.06467608 0.07581232 -0.072881304 -0.10798523 -0.08259791 0.039475143 0.04064045
0.17415498 -0.062831566 0.1524263 -0.08118529 0.047991175 -0.078246325 -0.13183317 -0.061748534
0.06456302 -0.052036684 0.03289895 0.08545984 -0.15011051 -0.13819763 -0.16230968 0.012461806
0.1327932 -0.049569562 -0.108047165 -0.09965045 0.14768854 -0.089747205 -0.050833687 0.0652324
-0.045172814 -0.1094866 0.11954135 0.053250797 -0.006089712 -0.008383507 0.15504539 -0.054790076
-0.049890433 0.0055574495 -0.006056819 -0.085859455 0.074673206 -0.13573858 -0.04233761 0.07118306
-0.0126707675 0.12679431 0.042488478 -0.18410987 0.14346193 -0.04556546 -0.10688734 -0.100377426
-0.056604456 -0.06593661 0.16633806 0.07517646 0.062146146 0.06106158 -0.049568392 -0.0912126
-0.013318795 0.12509657 0.14365727 0.14879698 0.13463971 -0.029407032 0.046241947 0.10701615
0.09755269 -0.047724668 -0.049336992 0.056771234 0.042118315 0.095377706 -0.04195665 0.046754964
-0.13355435 -0.10098347 0.117475085 0.12346007 -0.00989307 -0.012109449 -0.095481955 -0.056147184
-0.08735725 0.09811042 0.12821941 -0.08340798 0.17062892 -0.11295239 0.08188594 0.056938615
-0.032097887 -0.075236455 0.12624733 0.17004563 -0.051445737 0.16980278 -0.04869522 -0.041294545
0.07486849 0.02094082 0.055683043 -0.06095348 0.022855982 0.03993425 0.029282792 -0.07873584
0.09328439 -0.020449687 -0.12221366 0.034705088 0.041692052 -0.035122253 -0.119485386 -0.01819852
-0.07975849 0.106527515 0.12790059 -0.023050034 -0.103946336 0.028170854 -0.09708075 0.029105807
0.08488621 -0.118832156 -0.0713095 -0.09292305 0.14050163 0.09562784 0.07185234 -0.13735321
0.086201444 -0.06332606 0.04746152 0.15195444 -0.06625075 0.02069564 0.15244496 -0.09204831
0.05944666 0.07680759 0.11697915 0.11767798 -0.01162143 0.09749183 0.1472817 0.07044092
0.07081985 0.04055967 0.13727306 0.13472429 0.15255903 0.01135579 -0.12181356 0.031642653
0.16373578 0.16275257 -0.020085223 0.054142825 0.0846441 -0.0009159393 -0.008521399 -0.04726311
0.16299412 -1.6752449e-05 0.07873609 -0.116231985 0.13065581 -0.057771124 -0.08451643 0.01746939
-0.026786463 -0.117772035 0.17514381 -0.08254126 0.12546486 0.14228953 -0.04373647 -0.14193937

model.rnn.weight_hh_l0 f4 [160, 40]
00000000: 2b30 bebd 0ecf 23be 7629 323e e142 143d
00000010: ec2f 12be e132 24be d8a1 4bbd 49b5 d4bd
00000020: 4221 ecbd bab4 99bc ff0a 853b a0ee 71bb
00000030: c734 063e 8fe2 ccbd 7b85 f23d 8053 58bd
00000040: 4137 af3d 763b efbc e28d e5bd 838f 17be
00000050: e7e6 24bc ca87 8dbd a4f6 adbd cd24 40bd
00000060: d861 8bbd 8d28 51bd 4e72 d6bc 2aa0 013e
00000070: b625 aabc 8c97 afbc 0351 10be f0cc b8bd
00000080: 6720 2e3e bf72 7ebd a062 133d feff 4c3d
00000090: 1013 78bd 1fae 903d 21dd eabc 6aa4 1a3d
000000a0: 482c 97bd a1b6 fabc fc77 1d3e 39d5 0b3e
000000b0: a20d 363d 9366 98ba a795 01be dbfa a23c
000000c0: 7ff5 aabc 2ce6 b1bd d105 e4ba 3bf4 ae3d
000000d0: aae4 0dbe 7cc1 293d 0778 d03d 3124 c4bd
000000e0: 0db7 a83d b6e9 183e e753 b5bd e654 e5bd
000000f0: 54d3 483d 3697 1abe 5d14 013c 934e 1c3e
00000100: ee94 f3bd 730d 983d 9e08 ea3d 1b8b ed3d
00000110: 2afe 433d aec5 5f3d 862d 1cbe cf4c d93d
00000120: ac5a cd3d eacc 02be 9410 053d ed9f a43d
00000130: e48e 6cba 8e29 c13b 4082 12bd 04ee a53d
00000140: f83e 03be 536a 253c 5b9e 593d 7146 09bd
00000150: e2c5 32bd b0ca 38be 4d4c 0dbd f80d a23d
00000160: ccbe 81bd b681 0d3e 43c0 9dbd 38a8 6bbd
00000170: 4df2 133e 3f07 47be e9f4 0a3e 8641 0a3e
00000180: 70eb 213e e92e 9abd b43e f03d ccae 48bd
00000190: a259 1dbd ac90 6e3b 2b42 c3bd 2216 e6bd
000001a0: 71d0 8bbd ac0c 46bc 625e fa3d db08 3f3e
000001b0: 70a6 46bc 6425 20bd 21f3 cebd 381e e0bd
000001c0: 8a67 183e 7afa a83d 4462 4abd 0dfa 45be
000001d0: 91e0 82bd 0652 29be ab9a 99bd 97bd ad3d
000001e0: 5e43 87bc 5fa2 0c3c 804f 3e3d 0147 43bd
000001f0: 2146 8c3d 1395 003e e921 053e 13cd 3b3d
00000200: eb34 ec3d c5e7 eebd 3148 93bd 7d14 b9bd
00000210: 8aec cd3c b2fe d7bd 56d5 14be 9880 8c3d
00000220: 41dc 213e 0fd8 1f3e 1dbd 14be 8c7f 2bbe
00000230: de85 0d3e d102 15be 9f42 013e b3ac 5abd
00000240: 27b0 c7bd d329 cebc 47cf 1abe 7ccf c2bc
00000250: 0ac6 09be a780 eebb a446 1d3d 402a 12be
00000260: c4ab 433d a36e 213e d545 b2bb 9ab0 a03c
00000270: 5828 6dbd 38aa 77bd 8019 36bc 9159 e63d
00000280: 828f 363d e6c5 01bd 8484 20bd 7fa7 40bc
00000290: 3187 02bc bb6f 8a3d 15d0 4e3d 778f e13d
000002a0: 457e 013d a0eb cf3d 9d1e 14be b697 ce3c
000002b0: 1a7b a83d eace 10be edf0 3a3d 41c5 e5bc
000002c0: 2601 b33d 04d4 dabd f032 b4bd 9668 eb3d
000002d0: eada 0d3e 3422 15be 02b1 b0bd 9b1f b63c
000002e0: f9d8 843d 262b d23d 3d9c 9f3d c12f 12be
000002f0: fa59 3abd 3253 29be 33b6 d43c e57a c2bd
00000300: 3e86 c83d 0ba0 bfbd 8ec3 123e ee39 0c3e
00000310: a9c0 ec3d f8a9 013d 983e 183e 603b aa3d
00000320: 4afd 053e c027 34be fbc4 1a3e 2650 ce3c
00000330: d91d b93c 77db ba3d 9561 dcbc c844 b63d
00000340: 62c5 b7bd a6d4 bd3d 9580 1bbd 564e 16bd
00000350: 3f65 eb3d 8a5d 22bd 9ef9 a93d c0ef 20be
00000360: 6f8e 0e3e 27ed b8bd 5d53 b4bd 4d54 9f3d
00000370: 80eb 433d f4c6 203d 70b6 02be 77c5 05be
00000380: a703 9bbd 15bb 353d 1430 d1bd 59b9 91bd
00000390: c1d4 d83d e417 9bbd 3478 2e3d 55ec 7cbd
000003a0: 535a 4fbd c6db e0bd edb3 be3d 4378 07be
000003b0: 7cc9 bf3d efa3 91bb 989f c0bd 285a ba3d
000003c0: 63d7 8fbd 454f af3b 66c0 72bd 9f3f babc
000003d0: 432c fbbd 0e5a e43d 7271 c73c a1e4 0fbe
000003e0: cd8c 8e3d 277a 73bd 3eb1 dc3d b792 09be
000003f0: 1527 b83d 59a2 c53d 01ef f13d d6b0 ee3d
-0.09286531 -0.15996954 0.17398629 0.036196593 -0.14276093 -0.16035034 -0.049714893 -0.1038614
-0.11529781 -0.018762935 0.0040601487 -0.0036915913 0.1310607 -0.1000415 0.11841866 -0.052814007
0.08555461 -0.029203158 -0.112087026 -0.14800839 -0.010064817 -0.06910665 -0.084943086 -0.046910096
-0.068057716 -0.051064063 -0.026177552 0.12658754 -0.020769935 -0.021434568 -0.14093404 -0.09023464
0.17004548 -0.06212115 0.035982728 0.05004882 -0.060565054 0.07064461 -0.028669896 0.037754454
-0.07381493 -0.030604662 0.15377802 0.13655557 0.044446595 -0.0011627249 -0.12654744 0.019895008
-0.020869015 -0.0868648 -0.0017396753 0.08542677 -0.1385676 0.041444287 0.101791434 -0.095772155
0.08238039 0.14932904 -0.08853894 -0.11197834 0.049029663 -0.15096745 0.00787839 0.15264349
-0.118936405 0.0742444 0.11427425 0.11598798 0.04784981 0.05463188 -0.15251741 0.10610353
0.1002706 -0.12773481 0.032486513 0.08038316 -0.0009023978 0.0058948463 -0.035768747 0.081020385
-0.1281699 0.01009615 0.053129535 -0.033514444 -0.043645747 -0.18046069 -0.034496594 0.079128206
-0.0633522 0.13819012 -0.07702687 -0.057533473 0.14447899 -0.19436358 0.13569988 0.13501558
0.15812469 -0.07528479 0.1173071 -0.048994824 -0.03841556 0.003640215 -0.09534105 -0.1123469
-0.068268664 -0.012087982 0.12225033 0.18655722 -0.012124643 -0.03909816 -0.10104967 -0.10943264
0.14883247 0.082508996 -0.04941012 -0.19333668 -0.06390489 -0.16535196 -0.07500204 0.08483427
-0.016511615 0.008583634 0.046462536 -0.047675136 0.068493135 0.12556867 0.13001217 0.04584987
0.11533531 -0.116653 -0.07191504 -0.09037111 0.025137205 -0.10546626 -0.14534506 0.06860465
0.15806676 0.15609764 -0.14525266 -0.16747874 0.13820598 -0.14551856 0.1262307 -0.053387355
-0.09750395 -0.025166428 -0.15118133 -0.023780577 -0.13454452 -0.00727852 0.038397446 -0.1427393
0.04777123 0.15764861 -0.0054404535 0.01961546 -0.057899803 -0.060465068 -0.011114478 0.11247552
0.044570453 -0.03168287 -0.039188877 -0.011758684 -0.007966802 0.06759592 0.05049141 0.11013692
0.03161456 0.10152364 -0.14464803 0.025218826 0.08226605 -0.14141431 0.04563992 -0.02804816
0.087404534 -0.1068497 -0.08798778 0.114945576 0.1385304 -0.14563829 -0.086275116 0.022231868
0.06486697 0.10262136 0.07793472 -0.14276029 -0.045495965 -0.16535643 0.025965786 -0.094960965
0.0979123 -0.09356698 0.1433241 0.13693973 0.115601845 0.031656235 0.14867628 0.08312106
0.13084903 -0.17593288 0.15114205 0.025184702 0.02259724 0.09123891 -0.026902 0.08899838
-0.08973195 0.09269075 -0.037964422 -0.0366958 0.114939205 -0.039639987 0.08299564 -0.15716457
0.13921522 -0.09029608 -0.08804963 0.07779751 0.047832012 0.039252236 -0.12764907 -0.13063608
-0.07569056 0.04436787 -0.10214248 -0.071154304 0.105874546 -0.07572916 0.042595103 -0.06174882
-0.05062325 -0.109794185 0.09311662 -0.1322947 0.09364602 -0.0044445912 -0.0940544 0.09099227
-0.07023504 0.005350026 -0.059265517 -0.022735415 -0.12264302 0.11149989 0.024346087 -0.14052059
0.06960449 -0.059442665 0.10775994 -0.13434874 0.08991829 0.09650106 0.118131645 0.116548225

model.rnn.bias_ih_l0 f4 [160]
00000000: fe2f 263b 905e 833d c714 c93d f248 fe3c
00000010: 9511 473d 1e12 00be 0f27 b0bc e2b5 e93d
00000020: e889 0fbe 48f9 c3bc b070 3c3d b78b 1e3e
00000030: 1126 b0bd 3abd 003e 919e edbd 839d db3c
00000040: bfca ff3c 6e8f 01be 8bc8 d63d 4072 033e
00000050: 7955 a9bd 7e21 c63c 2f8c 54bc b5c1 b6bd
00000060: 266b e2bd ae23 78ba 27ea 94bd 22bd 0f3e
00000070: 51da 9dba f726 383d f1e7 203e 28ac e03d
00000080: 0ae7 c53d 9a0a 98bd 2aa7 d73d 7979 6fbd
00000090: 6814 fcbb e270 d13d 1382 1ebd d8e9 29bd
000000a0: 0468 5e3d 6ab6 1c3e 0b03 bdbc 33f4 6839
000000b0: 64b6 92bd 7a80 06be edd6 b63d ca98 073d
000000c0: 87c9 cf3d 60b7 0ebe 7300 353e e92d a63c
000000d0: ff19 07bd 3bfe 91bd fcd2 24be 629f eb3c
000000e0: 09ae e53d 5c6b 023c d472 9f3d bc95 533d
000000f0: bba7 28bd 5f5a df3d 1bf5 d1bc ab55 6b3d
00000100: ecc6 9fbd bd41 3f3d 8b74 873c a58c a7bb
00000110: 7beb 14be 0a64 0cbe abc4 c03b 1965 243e
00000120: 3b46 183e 88c9 1abd 5de8 0abd d7fc edbd
00000130: 7a91 1b3d b168 a83d 360d 263e 7096 dc3d
00000140: d899 1ebb 7cbe fbbc 4956 2e3d b554 893d
00000150: 1c72 debd e206 16be 6391 053e 6ebf 1b3e
00000160: cb29 c5bc ae7b 39be dc18 b6bd 9b55 a73d
00000170: e8fd 123e 4c67 663c e1a6 c63a 46e0 18be
00000180: 2693 033e a1df afbc 2041 0dbe 178b b3bb
00000190: c089 fcbd 38fc 923d 3cb9 f9bc 1eaa dabd
000001a0: 5b50 073e b9b9 fd3d ce3e 11bd b575 653b
000001b0: 0518 ddbd aeca c83d 4a3e 1abe eaeb 81bd
000001c0: 1bf3 a23d 7161 063d 6eb3 b43d 1503 05be
000001d0: a884 003e 30a9 9d3c e9b2 9f3c 4fcd 4e3d
000001e0: 1f16 9b3d 387a 35bd 2806 9d3d cba2 493d
000001f0: 80a0 0b3d 69a1 a43c 5016 03be 4e59 0bbd
00000200: 3f9a 9bbd 10c1 1abd 41d3 f93c 9bda a23d
00000210: 2ae8 273e 9dd6 293e bae3 ff3c 3d73 cbbd
00000220: 88f3 0d3e 11cf e23c aea1 d4bd 0389 4fbc
00000230: e8d1 d53d ee61 e9bd 4e9d 323e 4760 debd
00000240: ff2d e3bd 310a babb 8c1a b1bd e2e8 0cbe
00000250: 9dfb 09be 67dc f3bd 3ee1 07be 4b50 c93c
00000260: 8d1e 1ebd 4b94 2cbd 4303 b5bd ab61 2ebc
00000270: 9f25 94bd 7090 23bc 0247 4fbd 6186 a5bd
0.0025358195 0.06414521 0.09818416 0.031040642 0.048600752 -0.12506911 -0.021503 0.114116445
-0.14017451 -0.023922578 0.046005905 0.15482984 -0.086010106 0.12572184 -0.1160251 0.026808506
0.031224607 -0.1265237 0.10487469 0.12836552 -0.08268256 0.024185892 -0.0129728755 -0.089236654
-0.11055593 -0.0009465766 -0.072712235 0.14036992 -0.0012043213 0.044959035 0.15713479 0.10970336
0.09663208 -0.07423897 0.10529931 -0.058465455 -0.0076928623 0.10226609 -0.038698267 -0.041482776
0.054298416 0.1530396 -0.02307274 0.00022216215 -0.071636945 -0.13134947 0.089277126 0.033104695
0.1014586 -0.1393714 0.17675953 0.020285564 -0.032983776 -0.07128569 -0.16096109 0.028762523
0.11214835 0.007960167 0.077855736 0.05165647 -0.041175585 0.10905909 -0.02562957 0.057454746
-0.07801613 0.046693552 0.016535064 -0.0051132017 -0.14542954 -0.13710037 0.0058828196 0.1605419
0.14870541 -0.03778985 -0.033913005 -0.11620491 0.037980534 0.08223093 0.16215977 0.10770881
-0.0024200585 -0.030730478 0.042562757 0.0670561 -0.108616084 -0.14651063 0.13043742 0.15209743
-0.02406778 -0.18113586 -0.0889146 0.08170625 0.1435467 0.014062714 0.0015155935 -0.14929304
0.12849101 -0.02146894 -0.13794374 -0.0054792273 -0.12330961 0.07177013 -0.030483834 -0.106769785
0.13214247 0.123889394 -0.035460286 0.0035012786 -0.10795597 0.09804283 -0.15062824 -0.06343825
0.07956525 0.03280777 0.08823286 -0.12989457 0.12550604 0.019245714 0.01949449 0.050488766
0.07572579 -0.04430601 0.0766719 0.049227517 0.03408861 0.020096498 -0.1280148 -0.034020714
-0.075977795 -0.037781775 0.030496242 0.07951852 0.16397157 0.16585775 0.031236518 -0.09934089
0.13862431 0.027686628 -0.103824005 -0.0126669435 0.10440427 -0.11395632 0.1744282 -0.10858207
-0.110927574 -0.0056774844 -0.086476415 -0.13760713 -0.13474889 -0.11907273 -0.13269517 0.02457442
-0.038603354 -0.04213361 -0.08838513 -0.010643403 -0.07233738 -0.009983167 -0.050604828 -0.08082271

model.rnn.bias_hh_l0 f4 [160]
00000000: dfdb 1d3e a2b5 5bbc bd69 4dbc 05ac f9bc
00000010: c972 0b3e 0c7e 16ba f9a1 98bc 36ed dd3d
00000020: 341a 04be a0f3 0abe cdb4 99bd 580f 08be
00000030: 3de3 aabd 1564 89bd 1bea ea3d 5398 e0bd
00000040: 607d 163e 2abb 973d ea15 a2bb e40b 913d
00000050: 066f 19be e368 e73d 5132 c5bd fe34 613d
00000060: ae90 ff3d 9f6d 12be a5a0 1b3e ba41 a33c
00000070: 69c5 bdbd 1225 6abd 8927 3e3d db9d 04be
00000080: 4145 313e 9bda cb3d 547e e9bd d861 01be
00000090: 3570 033e 2c3e efbd a9a5 c7bc d2c2 c33d
000000a0: c7b7 da3d b2fb 1e3e 5854 333b 46fe da3b
000000b0: ae90 e63d cc76 08bd dd88 c53c 82a2 d9bd
000000c0: adfe da3d 3783 d73d aaa2 0a3e b0bd 233e
000000d0: b249 fcbd 417d 8cbd 2ec4 0a3c 7307 abbd
000000e0: 1d24 c2bd 2a42 ed3d b1b5 29bc 37e8 163e
000000f0: 256c 5a3c 454a 8c3d dcfe 17bd 414d acbd
00000100: 9631 953d 0f05 213d c5ae 87bd 4699 853d
00000110: 4640 fe3d 10eb 1e3c 1130 d13d d722 06be
00000120: 2bb5 b63d e8ac 0cbd c72c e93b 0b60 36bd
00000130: a3a7 adbd c320 8ebc f458 223e 61ec 06bd
00000140: 5923 dcbd 49e9 513d 6bec 8dbd a4f7 64bd
00000150: a351 59ba 72f3 0abe 8fe5 b6bd 5212 273c
00000160: e715 17be e76e 833d fa3e ff3d d534 18be
00000170: fd6f 7cbb 150e 21bd 486f 26be b502 ee3d
00000180: 9d3d cbbd 0cf6 043e 0955 0fbe 4270 c63d
00000190: 831d c0bb 884c c93c cf69 c1bd 8077 0abe
000001a0: db60 99bd e58e bc3d 1779 a83d 7e49 52bd
000001b0: 397a e33d 8299 33bd 8753 a83b 8820 dcbd
000001c0: 5a1e 123d 65c2 d23d 7270 653d 555a c63d
000001d0: aba1 e43b 1500 6c3d 691d 39be 468a e63c
000001e0: c61c 343e 816c 8d3d a5a2 0f3e cda8 173e
000001f0: 9e4c 9ebd bdea 163e 7dea e53d d505 db3d
00000200: 765d 1e3e e49f 133d 73f5 153e fe76 283b
00000210: c189 0dbd 7c4c 433e 3d2d cd3d 7390 223d
00000220: cd7e 283e 4126 8e3d 3822 aa3d 7780 a4bd
00000230: cef3 a2bd f2f8 14be 6419 c3bd d457 0d3e
00000240: 9d37 f73d 8fd3 d03d e14b 223e 07fb f0bd
00000250: f666 a23d 6756 a73d 928c f2bd 51b7 e8bd
00000260: d103 bfbd 1d11 183e 59ba 81ba ddff 10be
00000270: c103 53bc 42cc 49bd 3d97 ec3c 3c9f 2f3c
0.15415905 -0.013410004 -0.012537417 -0.030477533 0.13618006 -0.00057408283 -0.018631922 0.1083626
-0.1290062 -0.13569498 -0.07505188 -0.13287103 -0.083441235 -0.06708542 0.11470433 -0.109665535
0.14696264 0.074087456 -0.00494646 0.07082346 -0.14983758 0.112993024 -0.09628738 0.054982178
0.12478767 -0.1429963 0.15198 0.019928802 -0.092661686 -0.05716426 0.046424422 -0.12950842
0.17311575 0.09953805 -0.11401048 -0.1263498 0.12835772 -0.1168178 -0.024370985 0.095586434
0.10679584 0.15525702 0.0027363505 0.006683144 0.11258064 -0.03331642 0.024113113 -0.10626699
0.10693107 0.10523074 0.13538614 0.15990329 -0.12318744 -0.06859828 0.008469624 -0.0835103
-0.09479544 0.115848854 -0.01035826 0.1473702 0.013331448 0.06850103 -0.037108287 -0.084131725
0.072848484 0.039311465 -0.066251315 0.06523375 0.12414603 0.009699598 0.10214246 -0.13099228
0.08921274 -0.034344584 0.0071159336 -0.044525187 -0.0847924 -0.017349606 0.15854245 -0.032940272
-0.107489295 0.05124787 -0.06929859 -0.05590023 -0.0008290058 -0.1356943 -0.089305036 0.010197239
-0.14754449 0.06417637 0.12463184 -0.14863904 -0.0038518899 -0.03932007 -0.16253388 0.1162161
-0.09923861 0.12984484 -0.13997282 0.0968938 -0.005862893 0.024572626 -0.094440095 -0.13522148
-0.07489177 0.092069425 0.08226221 -0.05133962 0.111072965 -0.04384757 0.0051369104 -0.10748392
0.035673477 0.10290984 0.05601544 0.09685198 0.00697728 0.057617266 -0.18077625 0.028142106
0.17589101 0.06905461 0.14026888 0.14810486 -0.07729457 0.14737983 0.11226366 0.10694472
0.1546534 0.036041155 0.14644413 0.002570569 -0.0345552 0.19072145 0.10018394 0.03968854
0.1645462 0.0694089 0.08307308 -0.08032315 -0.07956658 -0.1454809 -0.09526327 0.13803035
0.12071154 0.101966016 0.15849258 -0.1176663 0.079297945 0.08170777 -0.11843218 -0.1136309
-0.093269 0.14850278 -0.0009897455 -0.14160104 -0.012879313 -0.04926706 0.02888071 0.010719117

model.rnn.weight_ih_l1 f4 [160, 40]
00000000: 2ebd de3d 7f7d a63d 4ac3 9b3c eb13 fcbd
00000010: 8458 06bd 7440 48bd 9f4f 2dbe 1e0b 313e
00000020: ed05 3abd 275c 563d f8a2 e8bd b8f5 f7bd
00000030: a903 1ebe 9a3e a9bd 6729 3fbc dd34 803d
00000040: 5f41 23be 53bf d2bd ab27 19be 11c1 71bd
00000050: 5206 01be 30fb 223e ecb7 da3d f438 9d3d
00000060: fd24 183d c225 a4bd 3675 febd 8f67 c5bd
00000070: 4254 d2bd 7dbd bfbd 4c79 173d 9b93 a43d
00000080: b863 08be f1ee 5d3c c54d 233d 885d b4bc
00000090: f175 b6bd 7a51 043d e65b 693d afa4 38be
000000a0: 41e8 c2bb 4c53 1a3e c780 adbd 33d1 ee3c
000000b0: cb3b 0ebe 2037 e53b 428c 35bc 3d01 b73b
000000c0: 3312 32bd e17d 693d e2e6 e9bd f1f6 35bd
000000d0: b766 ff3a 7118 833d e1bb 9c3c eb79 093e
000000e0: 177e 1ebe 42cd 9a3c ae4c 0abc 0800 843d
000000f0: a2cd 87b8 0313 f3bd bcbf 10be 1ef0 683d
00000100: 8fff 2dbd c918 13be 3ceb 593c cdf0 ac3d
00000110: 3e02 0c3e 2afd 043e 68f1 e53d cae0 35bd
00000120: 131a b4bd afe4 12be f8bd af3d 6bc4 e9bd
00000130: 2529 383d 48ca 1c3a 8b66 b63d f908 92bd
00000140: 35cf cfbd bd6b ad3b 2b62 1b3e 59bd f53c
00000150: f148 9ebd 5f50 b3bb 4de6 2bbd 0e2f cc3d
00000160: 573a 83bc 8c2b 353d 7d71 fabd 868f bcbc
00000170: f7d4 183e 40bf e13d 8105 cf3d 6b8d 613d
00000180: bae0 643d ec51 01be 3052 cb3d ce46 26be
00000190: 9c9c ae3c db13 bd3d b623 a8bd 7286 97bd
000001a0: 5fba 003e 6556 ffbd 7bcd 96bd 7f47 c23d
000001b0: 7ba9 673d 1a39 093e 1786 e23b cf06 12be
000001c0: c40f 4dbd a28c a03d 997c 173e ce99 adbd
000001d0: 23c8 513c be23 043e 2395 ab3d fd75 4dbe
000001e0: 9bfb d3bc 83b2 0bbe 955b 92bb f265 f0bc
000001f0: 7571 29be ab16 1f3d d81f 81bd d241 583c
00000200: a904 093e aad3 65bd 86c3 debd 0c39 05be
00000210: 5e7a 603d d824 7a3c 7e7b 06be 31d9 bd3d
00000220: da6f 14be 1024 05be 9e7f 98bd 992a 053d
00000230: d4dc 1f3e 1c78 8a3c 87c8 19be b608 073d
00000240: 88e4 353d e52e 173e 139f 943d f873 533d
00000250: 9423 573d fd4b 2d3d 53af e13d 0194 10be
00000260: ca18 423d 2f6a f93c edd0 f53d 7b36 4abd
00000270: 529f d5bd 5d75 003d 4e69 5d3d ffa4 16bd
00000280: cd76 82bd 9050 24be cffd 0abe afb2 923d
00000290: 6ff9 fdbd 7677 fdbd 97ab 11be 3344 9cbd
000002a0: 9147 88bd f6c3 1e3d 3735 11bd 847f 7dbd
000002b0: 8632 31bd 795c 8ebd 0b4a 143e 73ad 6abb
000002c0: 9825 873d b735 ed3d 2384 42bc 5616 c0bd
000002d0: 691a ccbd 6190 cb3b 9a92 913d e19d 1fbe
000002e0: 07f1 c03a 78bb c13d 1df5 513c 16e0 e63d
000002f0: c9d5 b13c ca4b 95bd a600 9fbd daa0 eb3b
00000300: 5d3d a53b 5ae7 7d3d 5293 18bc e846 21be
00000310: 6002 b53d b1e2 da3d e404 0cbd 1405 4d3c
00000320: de47 cabc f048 1e3e d2b4 1ebe 0567 efbd
00000330: cb6c a0bd 1f30 733d 7a2d 293e 3e6d c23d
00000340: c925 dabd 9b09 a23c 83a0 f93d 67e4 5dbc
00000350: 6e2b 0fbe 8ac3 0abe 7bf7 8c3d e4b6 a9bd
00000360: 4d77 a63d f85b bfbd 8300 d5bc 1410 c53d
00000370: 965e 05bd b823 e8bd 5a42 65bd f4e0 3ebd
00000380: d243 2fbe 4627 25be 6fc3 a0bd cc40 b33d
00000390: 52d3 2dbe 6a3b 5cbd b5d2 1fbd 6223 abba
000003a0: 6c76 a8bd 01f9 083e 50ec e4bd 1d12 283d
000003b0: 7631 3abd 21e6 f4bd 07a8 5e3d b594 9b3d
000003c0: 0c24 bfbd 564a bcbd e1d5 433d a80f af3d
000003d0: b806 20bd 293c 1bbd 2692 fa3a 60ad 123e
000003e0: 842f 923d 1673 fbbd eaaa 033d 6a8a a1bd
000003f0: e106 ea3d ba32 ecbd ad37 08bd b54b 04be
0.10875927 0.08129405 0.01901402 -0.123084866 -0.03279926 -0.048889592 -0.16924904 0.17289397
-0.045415808 0.052333977 -0.11359209 -0.12107414 -0.15431084 -0.082638934 -0.011667586 0.06260083
-0.15942906 -0.102903984 -0.14956538 -0.059022013 -0.12600067 0.15916133 0.106796116 0.076768786
0.03714465 -0.08015014 -0.124247 -0.09638893 -0.10269977 -0.09362314 0.036980912 0.08035966
-0.1331929 0.013545738 0.03986909 -0.022017255 -0.08909214 0.032304265 0.056972407 -0.18031572
-0.005948097 0.15070838 -0.08471828 0.029152488 -0.13889997 0.006995097 -0.011080803 0.0055848644
-0.043474387 0.057004813 -0.114209905 -0.044424955 0.0019485567 0.06401146 0.019132556 0.13425414
-0.15477787 0.018896703 -0.008441133 0.064453185 -6.475604e-05 -0.118688606 -0.14135641 0.05686962
-0.042480048 -0.14364924 0.013300713 0.084443666 0.1367273 0.129872 0.11227685 -0.04440383
-0.08794036 -0.14345048 0.085811555 -0.11414417 0.044961113 0.000598107 0.08906277 -0.07130618
-0.101469435 0.0052923844 0.15174167 0.029997515 -0.07728756 -0.0054722275 -0.04196768 0.099699125
-0.01601903 0.044230983 -0.122286774 -0.023017656 0.1492499 0.11022806 0.10108472 0.055066507
0.05587838 -0.12628907 0.099277854 -0.16237947 0.021314912 0.09232303 -0.08209936 -0.0739869
0.12571095 -0.1246765 -0.07363411 0.09486293 0.056558114 0.13400689 0.0069129574 -0.1426041
-0.050063863 0.078393236 0.14793624 -0.084766015 0.012804064 0.1290426 0.08378055 -0.2006454
-0.02587681 -0.13642316 -0.004466484 -0.029345486 -0.16547187 0.038839977 -0.06304902 0.013199287
0.13380684 -0.05611006 -0.10877137 -0.13010043 0.0548042 0.015267573 -0.13133046 0.092699416
-0.14495793 -0.13002038 -0.07446216 0.032511327 0.15611583 0.016902976 -0.15017901 0.03296729
0.044407398 0.14763983 0.072569035 0.05162427 0.052524164 0.042308796 0.110197686 -0.14118959
0.047386922 0.03044614 0.1200274 -0.049368363 -0.104307786 0.031361926 0.054055505 -0.036778446
-0.06370316 -0.16046357 -0.13573383 0.071629874 -0.12401091 -0.12376301 -0.14225613 -0.076301955
-0.06654275 0.0387611 -0.03545114 -0.061889187 -0.043261074 -0.069512315 0.1448137 -0.003580895
0.06598967 0.11582511 -0.011872324 -0.0937926 -0.09965975 0.0062122797 0.0710804 -0.1558757
0.0014720269 0.09459585 0.012814787 0.1127321 0.021708386 -0.07289846 -0.077637956 0.007190806
0.0050427155 0.061988212 -0.009312468 -0.15749705 0.088383436 0.10687769 -0.03418435 0.012513418
-0.024692472 0.15457511 -0.15498665 -0.11689571 -0.078332506 0.059372064 0.16521254 0.094934925
-0.10651738 0.01977997 0.12188818 -0.013543225 -0.13981411 -0.13551155 0.06883141 -0.08286837
0.081282236 -0.093437135 -0.02600122 0.09622207 -0.032560907 -0.11334938 -0.05597148 -0.04660125
-0.17115715 -0.16128263 -0.07849776 0.087525934 -0.16975144 -0.0537676 -0.039019305 -0.001305681
-0.08225712 0.13376237 -0.111778855 0.0410329 -0.045457326 -0.11957956 0.054359462 0.07596723
-0.09333047 -0.09193866 0.047811393 0.08547908 -0.039068907 -0.03789917 0.0019117042 0.1432395
0.07137969 -0.1227781 0.03214542 -0.078877285 0.11427093 -0.11533113 -0.03325622 -0.12919505

model.rnn.weight_hh_l1 f4 [160, 40]
00000000: 952b e8bd bca7 973c 44a0 af3c 1a17 aa3d
00000010: 32ea 9cbd ad93 283d 0816 7e3c 1a0f 4f3c
00000020: a853 243e 3757 c6bd 0ea7 0fbd a27d 08be
00000030: 3952 0b3d b531 293d 386a 1b3e 20e3 74bc
00000040: f9ef 88bc 4ad1 393d ea51 d3bc d0b0 d93c
00000050: 6273 2abe f474 9bbd 858c 423d 7607 acbd
00000060: e366 bfbb ad9e 303c b095 cdbc 736c acbd
00000070: 6c7a 8f3c 2a49 9c3c 903f f73d 2ebd e13d
00000080: ca87 663d 1022 b33c a8b6 ac3c 478f da3d
00000090: a8cc 99bd b9fa 843d aa97 ff3b e9e1 043c
000000a0: 01de e83d ac19 2d3d 2ee5 463d fc04 80bb
000000b0: 19a0 fdbd 5c6e 00be 8978 1dbd 8447 a63d
000000c0: f607 8d3c 1d97 a0bd c34d ecbd 98d1 9dbd
000000d0: 7a20 993d bfbf 74bb 2457 8d3b 5986 0fbe
000000e0: b334 113e 715e 0cbd a056 0e3e 8bb6 133e
000000f0: 52e7 1b3e 9468 28bd 14c5 56bd e54e 8ebd
00000100: 997f 903d d161 19bd 5232 4bbc c6a4 c9bd
00000110: 155e f6bd 4d13 cbbd da70 033d 4016 54bd
00000120: 6f0b abbd 2e61 5fbd c8dc 9ebd 9c7c db3d
00000130: 6876 223e 6a58 d93d 1dab dd3d cad0 81bd
00000140: b6aa 15be e5be 13be 9f1b 703d 16a7 c0bd
00000150: 85bb babd abfe 0a3e d8cd bf3d dec1 abbd
00000160: 983f cfbc ad79 443d 5384 2bbd 99a0 72bd
00000170: 2d0e c33d 1d64 233e 94b8 243c 857a ca3d
00000180: 35bb c2bd 167d fdbd 0160 c6bc febe 343e
00000190: c988 b8bd 5ad5 80bd 8eb6 ccbb 6528 58bd
000001a0: f947 efbc cfe4 00bc 838c ddbc 8425 a9bc
000001b0: acbd 903b 6024 1cbe eeb1 143e c048 b63d
000001c0: 2932 04be 351e 99bd 3bba bdbd cbc4 303e
000001d0: ee1c 8f3d 46af 78bc 8f0e 343e 49be 233e
000001e0: bdec a03d 5fdf 4a3d c7a9 0a3d fc0b 143e
000001f0: ac76 41bd 0a04 df3c 067f 1bbe d0ea 913d
00000200: 5496 0fbe 1b4a 03be 9b03 e5bc 6b8d eabc
00000210: ac7b 12be 25fd 2bbe 6bea 83bd 813b 09be
00000220: 2532 bcbd 0da2 a2bd d4e3 c83d f053 dcbd
00000230: 7d6e 123d 2e26 7cbd 81ed 7b3d 0c43 133e
00000240: 93b4 e6bd 7c3b 073e 192a c83d 688c cabb
00000250: 4f49 b0ba 2d87 f03d 342c c1bd 00f9 ccbc
00000260: 733e dd3d b1a5 183d 5941 12be f4f9 0cbe
00000270: e194 0dbe 46b0 cb3d ba94 f23d ef11 acbc
00000280: 9665 e8bd f660 343d a53e 1f3e adba bc3d
00000290: 2196 0e3d 46de 743c 7caf 53bd c08a 0a3e
000002a0: d92a 3ebd f1d4 88bd 4028 073a 245c 603d
000002b0: f00e 9f3d b501 d33d 393e 17be 2696 1fbd
000002c0: df6b cabd 8e53 61bd dedd 9dbd 5a0e 303e
000002d0: 2879 1a3e 5f07 253e 4217 7f3d da95 8c3c
000002e0: 61cd eebb bb97 6abd 86af 0cbd 8876 02be
000002f0: 36a8 98bd 2888 cd3d 3a79 f43d 79e2 3c3d
00000300: 58e2 8abd b907 df3d 56ad 2cbe 0d06 da3c
00000310: b5b5 803d 6a59 f5bd 5bfd 6cbd 9dc2 a6bd
00000320: 1196 243e 32f9 433d b906 6dbd f230 9c3d
00000330: 9cb7 01be 4f1f 023d 5f96 f1bd 1686 163d
00000340: 5d1a d83d 719b 18be e0c2 323e 63af d23d
00000350: 89fd a8bb 2b70 4ebd 70da cf3d 54d3 fbbd
00000360: 73f3 893d b8c6 7dbd 0e39 173e a714 91bd
00000370: 5831 6cba 3e47 e83d b5d6 01be 1168 12be
00000380: 7c0e 5f3d 25c8 f33d bcde 8bbc e4d8 373e
00000390: 3fb5 053d 7212 27be d086 f33b d69a 1f3e
000003a0: c1a2 e5bd ec6e 1cbe e12a d73d c3f0 153d
000003b0: 931a ffbd 9939 363c a611 16bd 8105 dc3c
000003c0: 551f 84bd 39be c13c baac 833d c1f4 b2bd
000003d0: d929 0cbe cf13 57bd d418 df3d 2782 a13d
000003e0: 2198 9ebd cec4 0cbe 929d b5bc 5b84 993d
000003f0: 1d26 803c a355 03be bee5 283c b243 033d
-0.113364376 0.0185126 0.021438725 0.083051875 -0.07661857 0.04115646 0.015508182 0.012637878
0.16047537 -0.09684604 -0.035071425 -0.13329175 0.03401396 0.04130717 0.15177238 -0.014946729
-0.01671599 0.04536561 -0.025795896 0.026573569 -0.16645578 -0.075906664 0.04749729 -0.083998606
-0.0058411225 0.010780019 -0.02509579 -0.084191225 0.01751443 0.019077856 0.120726705 0.11022411
0.056281842 0.021866828 0.021083191 0.10671859 -0.07509738 0.06493134 0.007800062 0.008110502
0.11370469 0.04226081 0.048558407 -0.003906844 -0.12384052 -0.12542099 -0.03844503 0.08119109
0.01721571 -0.078413226 -0.11538269 -0.077059925 0.074768975 -0.0037345735 0.0043133665 -0.14016093
0.1418026 -0.034269754 0.13900232 0.14425103 0.1522496 -0.04111536 -0.052434042 -0.06948642
0.07055587 -0.0374468 -0.012402134 -0.09845881 -0.120296635 -0.09915791 0.032090046 -0.05177903
-0.0835179 -0.054536037 -0.077569544 0.10717127 0.15865481 0.10612567 0.10823653 -0.063386515
-0.14615902 -0.14428289 0.05862009 -0.09406869 -0.09117798 0.1357371 0.093654335 -0.083865866
-0.025298879 0.0479676 -0.04187424 -0.05923519 0.09524188 0.15956159 0.0100537725 0.0988665
-0.09508363 -0.12377374 -0.0242157 0.17650983 -0.09010465 -0.062906936 -0.006247348 -0.0527729
-0.029209124 -0.007867052 -0.02704454 -0.020647772 0.004417142 -0.15248251 0.14521 0.08900595
-0.1290976 -0.07476465 -0.09264036 0.1726257 0.0698794 -0.015178507 0.17583679 0.15990557
0.07857654 0.04952943 0.03385332 0.14457697 -0.047232315 0.027223606 -0.15185174 0.07124865
-0.1402219 -0.12821238 -0.02795582 -0.028631886 -0.1430499 -0.16795786 -0.06441196 -0.13401605
-0.09189252 -0.07941065 0.0980908 -0.10758197 0.0357499 -0.06155985 0.0615058 0.14381045
-0.112649105 0.13206285 0.097736545 -0.0061812885 -0.0013449582 0.11744533 -0.09432259 -0.025021076
0.10802927 0.03726739 -0.1428274 -0.13767225 -0.13826324 0.09945731 0.118447736 -0.021004645
-0.11347501 0.04403778 0.1555124 0.09215293 0.034811143 0.014945572 -0.051681027 0.13529491
-0.04642758 -0.0668124 0.0005155839 0.054775372 0.07766521 0.1030306 -0.1476983 -0.038961552
-0.09883856 -0.055011325 -0.077083334 0.17192975 0.1508528 0.16116093 0.06227804 0.017161299
-0.0072876667 -0.057273608 -0.03434708 -0.12740529 -0.07453959 0.10035735 0.11937185 0.04611442
-0.06781453 0.10890145 -0.16862997 0.026614213 0.06284658 -0.11979945 -0.057858806 -0.08142588
0.16072871 0.047845073 -0.05786774 0.07626523 -0.12667698 0.03176814 -0.11796259 0.036748968
0.105519034 -0.14903046 0.17457151 0.102873586 -0.005157177 -0.05039994 0.101490855 -0.12296167
0.067358874 -0.06195709 0.14767858 -0.07084017 -0.00090100383 0.11341713 -0.1267956 -0.1429751
0.054457173 0.11903409 -0.017073981 0.17953831 0.032643553 -0.1631563 0.0074318424 0.15586409
-0.112126835 -0.15276688 0.105062254 0.03660656 -0.124562405 0.011122131 -0.036637925 0.026858093
-0.064512886 0.023650276 0.06429429 -0.08738089 -0.13687839 -0.052509125 0.108934075 0.07886153
-0.0774386 -0.1374695 -0.022169862 0.07495948 0.015643174 -0.12825637 0.010308681 0.03204698

model.rnn.bias_ih_l1 f4 [160]
00000000: 1918 1cbe 8611 ecbd fbdd 5f3d 6294 1abc
00000010: 5a4f eebc 4b60 b1bd 48e9 e6bd 0ab6 033e
00000020: 00d5 2dbd 4355 28be 7e22 bf3c ed39 ad3d
00000030: 9d45 4fbc 065a b33d 88ac 01be ec7c c63d
00000040: ada9 e4bd 2f20 e73d 539c 863d 7267 7bbd
00000050: 3781 7e3d 719b ecbc a2f4 0f3e f353 813c
00000060: 089f 16be 2f82 cd3d 5da4 013d 67ed 0abe
00000070: feb1 f13d 10cf 83bc dbb2 b8bd 7a8c c53d
00000080: 859a 2ebd ed87 973d cd3e 883d 15f6 4e3d
00000090: 5e49 c3bd 98bf bcbd 07eb 5f3d 9b94 223d
000000a0: a4d9 9d3d 4be9 04be ba17 e93d 9d06 b9bd
000000b0: c570 8abc 6a38 043e 92fa 983d 03a8 f33c
000000c0: 5573 9dbd bd12 ef3d 4014 803c d9de 2c3e
000000d0: 9337 7a3d c2b7 d13d 9859 c7bd e55d f53d
000000e0: f8fb 6b3d a18c 7b3d 5091 b33d d1ef b8bd
000000f0: de2e 403e 3bc9 c8bd 5873 efbd d159 193b
00000100: e5a7 413d f9d8 efbd f178 b9bd 68a0 26bd
00000110: 543a d6bd b5a1 9cbd 0ee7 65bc 0f6f 813c
00000120: 9043 07be f736 f4bd 2237 e93d d371 1f3d
00000130: 7815 303e f70c 0dbe 55d5 03be 84f0 273d
00000140: 38dd 86bc f387 e33b ce63 aabd a150 a63d
00000150: 9413 15be 6f75 afbc 8901 283d 38f5 063e
00000160: fcad febd 77eb a5bd a0c5 c93c 971b 243d
00000170: 7a0b 283d 6db2 eabd f3d0 e4bd ab77 1d3d
00000180: 50a4 fd3c 7527 8b3d cc25 00be 6ed6 253e
00000190: 206b f73b 6354 113d c3d9 2f3d 9b14 143e
000001a0: 87ce 3e3d 08a2 37be f193 0cbe 1b1c 993d
000001b0: a81b 03bd 1312 693d 7a94 ed3d c9a1 0bbd
000001c0: 6bd1 9d3d 254d 1b3c b918 20be ce8e 863d
000001d0: e35c 0c3e 14cd 0e3e 048b 5fbd 596b d7bd
000001e0: c043 a6bc 11b2 1bbe 0d0a e2bd 2672 8bbd
000001f0: 76f3 f1bd e55c 7bbd 0bbc b5bd c3bd 72bd
00000200: 19a0 9d3c 2048 03be 09a5 1f3e 9501 a3bc
00000210: d480 9f3c 20dd 183e 36d6 2c3c ddba 183e
00000220: 040f 1d3e b4b0 85bc ae62 0fbe 1a5e 4c3e
00000230: 1fe1 873d 3434 49bc fa10 8ebd caa5 673d
00000240: 76e0 02be 6810 253d 33c4 093e a1f3 efbc
00000250: a35c 28bd 7cf4 c9b8 d406 c53c a8d8 ba3d
00000260: 6761 743d b391 0c3e 72bd 3a3e fce3 6c3d
00000270: 23d6 023e c67a 453d 54d9 013d 7fcd e63d
-0.15243568 -0.1152678 0.054655056 -0.009434791 -0.029090572 -0.086609446 -0.112749636 0.12862411
-0.04243946 -0.16438775 0.023331877 0.08458314 -0.012650874 0.08757405 -0.12663472 0.09691796
-0.111651756 0.112854354 0.06572785 -0.06137795 0.062134948 -0.028882714 0.14058164 0.0157871
-0.14709103 0.10034596 0.03165089 -0.13567124 0.118015274 -0.016089946 -0.09018489 0.096459344
-0.04262783 0.07398973 0.06652603 0.05052765 -0.09535478 -0.09216231 0.0546675 0.039692502
0.07707527 -0.12979619 0.113814786 -0.090344645 -0.016899476 0.12912145 0.074696675 0.0297432
-0.076880135 0.11673496 0.015634656 0.16881885 0.061088156 0.10240127 -0.097338855 0.119807996
0.057613343 0.06141341 0.087679505 -0.09030116 0.18767878 -0.09804007 -0.11691922 0.0023399482
0.047279257 -0.11711306 -0.09056271 -0.04068032 -0.10460344 -0.07648031 -0.0140321385 0.015800027
-0.13209367 -0.11924546 0.11387469 0.03892691 0.1719569 -0.13774477 -0.12874348 0.041000858
-0.016462907 0.0069436966 -0.083198175 0.081208475 -0.1455825 -0.021418301 0.04101709 0.13179481
-0.12435529 -0.08101552 0.024630368 0.040065374 0.04102657 -0.11459813 -0.111726664 0.038444202
0.03096214 0.06794635 -0.12514418 0.1619508 0.007550612 0.035480868 0.042932283 0.14460985
0.04658368 -0.17932904 -0.1372831 0.07476064 -0.032008797 0.056902003 0.11600585 -0.034089837
0.07705959 0.009478842 -0.15634431 0.065702066 0.13707308 0.13945419 -0.054575935 -0.10518522
-0.020295978 -0.15204646 -0.11037073 -0.068088815 -0.118140146 -0.061367888 -0.08873757 -0.059263002
0.01924138 -0.12820482 0.155903 -0.019898215 0.01947061 0.14928102 0.010549119 0.14915033
0.1533776 -0.01631961 -0.14002487 0.19957772 0.06634735 -0.012280513 -0.06936832 0.056554593
-0.12780938 0.04029885 0.1345375 -0.029290976 -0.04110397 -9.629966e-05 0.024051107 0.09123355
0.059663203 0.13727455 0.1823633 0.05783461 0.12776999 0.04821279 0.0317014 0.11269664

model.rnn.bias_hh_l1 f4 [160]
00000000: b43c 53bd fccf 943d 82fa ebbc 61b2 703d
00000010: d94c 12be 8af1 ec3c b995 16be 4857 573d
00000020: 8bcb 6f3c aa70 dd3d 5dfc 88bc 3976 2e3e
00000030: bc82 83bd 0324 65bd 1c68 32bd bfbd 223e
00000040: 4cea 4dbd a24c f3bd eb72 56bd 85c9 bdbc
00000050: c6f3 0e3e 4321 e23c 9f7e e43d 52e2 efbc
00000060: d601 a7bb d576 79bc 0d2b e1bb 1a13 b13d
00000070: d562 6c3c 6ed3 0c3e ad5a 9ebd 4658 0d3d
00000080: f830 6bbd 75ee 1fbc 86cc 66ba 0585 933b
00000090: f02f 9cbd 6be6 82bc 02e3 153d 921e c43d
000000a0: b448 cf3d 064c d2bd 545e e5bc f9b2 a6bd
000000b0: 5a40 6dbc cedc debd 34b4 9f3d 8275 ed3c
000000c0: c48f e63d fd62 80bd ffd3 8fbd 2584 45bc
000000d0: 91be f53d b07c a33b 3b91 21be 753e dfbd
000000e0: 9f5b 193d 465e c03d 5f68 f6bd e857 00bd
000000f0: 747f 093e 63ab eabd 0c31 33bd d8e8 143e
00000100: 52b4 26bd e61c 0f3d 822a cdbd a52c a8bd
00000110: 8eb0 923a 1699 5d3d a7e5 8bbb 69c7 a53d
00000120: 10a0 92bd 9a6a a03d 84e3 3e3e 58a8 e2bd
00000130: 0eca 193e ed4e 5e3c 2112 303e a550 b33c
00000140: bb93 50bd e3ea 6fbd 0bd4 8bbd 3122 9dbd
00000150: e475 31bd a282 ddbd 3a06 e3bd dcea eb3d
00000160: 90b6 e3bc 8ff7 92ba f987 0b3e 12fd b7bd
00000170: 46f4 bbbd a6ca 1b3e f281 96bd 003e dabc
00000180: 03ba 713d 9e84 9abd f860 d13d 8581 19bd
00000190: 5dc6 1b3e acca 95bd 4272 e53d 48c6 49bc
000001a0: 1292 0d3e 395e a13c 5514 333d b769 b6bd
000001b0: 7e85 2ebd 5276 7fbd 16bc a2bd 0d19 403e
000001c0: 7901 153d 8bb2 92bd e82e 393c ff90 263e
000001d0: 2bf2 853d 6060 8d3d eebd 473d 45e3 cb3c
000001e0: 95e9 e63c 8e67 25bc cc1f 5fbd 5bee 00be
000001f0: c7a9 f93d 5bb7 e83d ac27 113c fd67 94bd
00000200: fec2 e2bd 8737 3cbe 4068 e3bd d914 c8bd
00000210: 8eaf 3e3e 305a 82bc 8cc6 783d a935 a03d
00000220: fe35 b5bd 1f67 753d 218a 083d c337 bc3d
00000230: b2c9 4ebd e588 6bbd 17ff ccbd 6f87 dabd
00000240: bf6e 22bb 5081 3c3e b8a5 eb3d bf70 a1bc
00000250: 99eb c53c 5a29 1ebc 055f 943d ed57 0a3e
00000260: 62dd babd 4463 153e b0d2 b83c 3e15 453e
00000270: 8482 90bd 9e22 2ebd 5216 f63d 5f26 c8bd
-0.051571563 0.07266232 -0.028805975 0.058763865 -0.14287128 0.028923769 -0.14705552 0.052573472
0.014635931 0.108125046 -0.016721899 0.17037286 -0.0642142 -0.055942547 -0.043556318 0.15892695
-0.05027227 -0.11879851 -0.052355688 -0.023167381 0.1396018 0.027603751 0.111569636 -0.029282723
-0.0050966544 -0.015226086 -0.006871587 0.086462215 0.01442786 0.13752529 -0.07732139 0.034508012
-0.057419747 -0.009761442 -0.000880428 0.004501941 -0.07626331 -0.015979012 0.036593445 0.09576143
0.10121289 -0.102684066 -0.02799908 -0.08139605 -0.014480675 -0.10881959 0.07798043 0.028986696
0.1125789 -0.062688805 -0.07022857 -0.0120554315 0.11999238 0.004989229 -0.15778057 -0.109005846
0.037440892 0.09392981 -0.12031626 -0.031333834 0.13427526 -0.11458471 -0.043747947 0.14541948
-0.04069931 0.03493967 -0.10017873 -0.0821164 0.0011191533 0.054101072 -0.00426932 0.08094675
-0.07159436 0.07832833 0.18641478 -0.11067265 0.15018484 0.013568622 0.17194416 0.02188904
-0.050922137 -0.058573615 -0.06827553 -0.07672537 -0.04332532 -0.10815932 -0.11085172 0.11519405
-0.027797014 -0.0011212694 0.13626088 -0.08983816 -0.09177451 0.15214023 -0.07349004 -0.026640892
0.059015285 -0.07544826 0.102235734 -0.037477035 0.15212388 -0.07314047 0.112034336 -0.01231534
0.13825253 0.01969825 0.043720562 -0.08906882 -0.042607777 -0.0623687 -0.07946031 0.18759556
0.036378358 -0.071629606 0.011302687 0.16266249 0.065403305 0.06903148 0.048765115 0.024888644
0.028187552 -0.01009549 -0.054473683 -0.12590925 0.121905856 0.11363097 0.008859556 -0.07246397
-0.11072348 -0.18380557 -0.111038685 -0.097696014 0.18621656 -0.015912145 0.060736224 0.07822735
-0.08848189 0.059912797 0.033334855 0.09190323 -0.05048532 -0.0575036 -0.10009592 -0.10670363
-0.0024785248 0.18408704 0.11506218 -0.019707082 0.024160193 -0.009653414 0.07244686 0.13510104
-0.09124257 0.14588648 0.022561401 0.19246385 -0.07056144 -0.042513482 0.12015976 -0.09772944

exp_avg f4 [1, 40]
00000000: 45ee 40b9 cca7 7eb9 e9bb 293a 46ac c138
00000010: 21e5 cbb9 a4c7 f939 2bd0 01ba e3ba 1a3a
00000020: 74f4 fe39 318e c7b7 dadd 1c3a e8a1 0a3a
00000030: 76d0 483a 6a98 453a ae18 7139 3cb3 50ba
00000040: fbfe 483a 6ef2 47ba 7bc9 d038 46a1 4a3a
00000050: 31f5 3c3a 164c 463a 1d14 293a ef7a b7b9
00000060: 5f31 c2b7 b0fe 3dba d3b3 433a cee1 9d36
00000070: 0b8f 89ba f5e9 36ba f655 d539 9a21 4f3a
00000080: 247a 8a37 c389 443a 647e 33ba be56 4d3a
00000090: c14a 503a cefa b439 f78f 4c3a 08e3 c739
-0.00018399309 -0.00024285837 0.0006474839 9.2350456e-05 -0.00038889892 0.00047641725 -0.0004951979 0.0005902482
0.00048628787 -2.3788862e-05 0.0005983986 0.0005288408 0.00076604576 0.0007537665 0.00022992745 -0.00079612783
0.00076673896 -0.00076273724 9.9557416e-05 0.000772972 0.0007208167 0.0007564438 0.00064498355 -0.00034996073
-2.3149592e-05 -0.0007247729 0.00074654556 4.7052517e-06 -0.0010494901 -0.00069776113 0.00040690572 0.00079014304
1.6507758e-05 0.0007497335 -0.0006847142 0.0007833055 0.00079457095 0.0003451914 0.0007803435 0.0003812539

exp_avg_sq f4 [1, 40]
00000000: 54c6 3235 f646 1535 36cd 4136 057b 8d35
00000010: 81a0 1736 b329 4835 66c5 8136 619f 5536
00000020: 4103 c335 757f 9233 5c9d 0e36 5b08 6d36
00000030: 5d5a aa36 f058 3b36 ae2d 5135 6f4f e236
00000040: c306 d536 4840 a336 083e 3b35 ca96 b736
00000050: 9b9d aa36 d43e de35 b18a b335 5809 d135
00000060: aa1b c133 ab3d b336 8a84 2836 cc5a 6233
00000070: ac2e 8b35 9b01 ad36 ffb1 5434 2596 e836
00000080: c737 0f35 f647 5436 7089 a536 faec 9836
00000090: d956 f136 5ba3 c235 006d 9536 5fdc 8334
6.659877e-07 5.561009e-07 2.887869e-06 1.0541122e-06 2.259418e-06 7.4566486e-07 3.86748e-06 3.1832244e-06
1.4529579e-06 6.821839e-08 2.1251244e-06 3.5320616e-06 5.0769145e-06 2.791694e-06 7.792504e-07 6.744572e-06
6.348682e-06 4.865262e-06 6.9753196e-07 5.471379e-06 5.0847425e-06 1.6558574e-06 1.3376904e-06 1.5574433e-06
8.992295e-08 5.341795e-06 2.5111099e-06 5.2702305e-08 1.036989e-06 5.1559887e-06 1.9808793e-07 6.931618e-06
5.335282e-07 3.1632349e-06 4.933383e-06 4.5575407e-06 7.19247e-06 1.4501669e-06 4.4532353e-06 2.4560993e-07

exp_avg f4 [1, 40]
00000000: 0c3d 833c 1e79 f23c 8671 59bd 60d5 c639
00000010: a214 163d 6e2e 57bd 8c4c b03c 18d5 6dbd
00000020: 6abf 50bd c2c0 e33b eacb 83bd 0a19 22bd
00000030: cc8f a6bd 0afe a1bd 7040 d7bc 7e5a b23d
00000040: 28d1 a3bd e0dd a83d 4a81 a2bc 50e0 acbd
00000050: 7fa6 95bd 6cc7 a7bd a4b2 6fbd 0486 c33c
00000060: d7d6 2e3b b6dd 963d 9a76 a6bd 6e69 9bba
00000070: 0067 a239 a1c3 8c3d 7b9f 1bbd 7078 b5bd
00000080: a62b 083b 76f2 9bbd cb15 833d 8278 b0bd
00000090: 5058 b3bd c40e fdbc 8ce7 aabd 9ab8 0bbd
0.01602032 0.029598769 -0.05308678 0.0003792448 0.03664077 -0.052534513 0.021520875 -0.05806455
-0.050963797 0.0069504688 -0.06435378 -0.03957466 -0.08132896 -0.07909782 -0.026275843 0.08708666
-0.07998878 0.08245444 -0.01983704 -0.08441222 -0.07307147 -0.081923336 -0.058519974 0.023867615
0.0026678347 0.07366507 -0.0812809 -0.0011856982 0.0003097579 0.06873251 -0.03799389 -0.08860862
0.002077797 -0.07614605 0.06400641 -0.08616735 -0.08757079 -0.03089083 -0.08344945 -0.034111597

exp_avg_sq f4 [1, 40]
00000000: 400e ec3b 4dfb 423c 351c bb3d 239a da3a
00000010: 54f7 fd3c e85e 393d ff15 683c 0d47 8a3d
00000020: 1612 703d 1e7b be39 a377 d33d 2747 5d3d
00000030: 5d6d 173e 1d76 0d3e f9fa 983c 4b36 243e
00000040: 0229 143e e95a 143e 797c ce3b db79 243e
00000050: 8e67 fd3d 658d 033e c3b1 9e3d c8f9 4e3c
00000060: cafe 6f39 2c0b fc3d a7b3 0d3e b712 7738
00000070: deb4 153c 1d83 ed3d 1c46 983c 1b29 303e
00000080: efaf 433a 8264 f53d 69f0 dd3d ce43 233e
00000090: b18c 2d3e 2dda c83c 6d9b 223e f9ca 863c
0.007203847 0.011900735 0.091362394 0.0016678016 0.031001724 0.045256525 0.0141654005 0.06751833
0.058610998 0.00036331353 0.10325553 0.054022934 0.14787813 0.13814588 0.01867436 0.16036336
0.14468768 0.14487804 0.0063014594 0.16062109 0.12373267 0.12846906 0.07748749 0.012632795
0.00022887732 0.12306818 0.13838063 5.890682e-05 0.00913736 0.115972735 0.018588118 0.1720318
0.0007464876 0.11982061 0.1083687 0.15943834 0.16948201 0.024518097 0.15879603 0.016454207

exp_avg f4 [1, 40]
00000000: 4231 a6bb 0b8c f5bb 9a4f 9a3c e0f1 9f36
00000010: 195c 35bc 6223 7f3c a72f 51bb 68dc 823c
00000020: 3a60 7b3c 5d94 9eba d2df aa3c 1ed5 5d3c
00000030: 4d8d c13c 63f3 c13c f482 173c f586 cbbc
00000040: fa2f c03c 01bf c1bc b784 bb3b 4dfc cd3c
00000050: 8fa9 ae3c 3dc0 c13c 6175 973c 1dd8 b2bb
00000060: 14e5 e9b9 a31e abbc 0ab1 c43c d2aa e338
00000070: ee57 343c eeb2 a8bc 7bf1 0d3c f1ac d43c
00000080: 8ca2 b4ba ba96 ae3c 028e a2bc a21d ce3c
00000090: 98a2 d13c d1e8 213c 4055 cb3c e3b5 023c
-0.00507179 -0.007493501 0.018836785 4.766727e-06 -0.011069321 0.015572401 -0.0031919272 0.015974239
0.015342766 -0.0012098659 0.020858679 0.013539581 0.023626948 0.023675626 0.00924753 -0.024844626
0.023460377 -0.023650648 0.005722608 0.02514472 0.021321086 0.023651237 0.018488588 -0.0054578916
-0.000446119 -0.020888632 0.0240102 0.00010856021 0.011007292 -0.020593133 0.00866353 0.025961371
-0.0013781353 0.021312106 -0.019843105 0.025160614 0.025590226 0.009882168 0.024820924 0.0079779355

exp_avg_sq f4 [1, 40]
00000000: 3fb7 4a3a abda b939 354b 3b3b 3181 8d3a
00000010: 4a99 163b c607 1e3a 7a28 903b 3465 5a3b
00000020: 5997 9a3a f632 8b38 fc5f e43a 0ef4 6e3b
00000030: 343a a13b da37 163b f540 303a b921 e83b
00000040: a024 d53b bd72 9a3b c658 203a 451e b33b
00000050: 9b61 a43b efab 9e3a 26d3 973a 0bb6 e73a
00000060: 4dd3 ca38 0f1d b03b 5c3d 053b d0a9 6d38
00000070: d626 6d3a c333 a83b ed82 1339 a891 eb3b
00000080: 4a9b 283a 3fa6 3a3b 0c24 a13b 91fd 893b
00000090: d43f f83b 93be c63a 1998 833b ef53 2a39
0.0007732994 0.0003544887 0.0028578762 0.0010795948 0.002297955 0.000602838 0.0043993564 0.0033324482
0.0011794373 6.637529e-05 0.0017423625 0.0036461386 0.0049202684 0.0022921474 0.00067235465 0.007084098
0.00650461 0.004713385 0.0006116744 0.005466255 0.0050165183 0.0012105684 0.0011583313 0.0017678154
9.6714684e-05 0.005374558 0.0020330762 5.6663353e-05 0.00090466195 0.0051331236 0.00014067786 0.0071889944
0.0006431831 0.0028480438 0.004917627 0.0042111357 0.0075759683 0.0015162997 0.004015934 0.00016243731
