homework13/lightning_logs/version_2/checkpoints/epoch=2-step=150.ckpt (torch, 321567 bytes, 33 tensors)

model.param_proj.proj.0.weight f4 [1, 40]
0	0xbd81f8c3	-0.06346276
1	0xbe1a4c4b	-0.15068166
2	0xbb7ad0be	-0.0038271393
3	0x3de5f8c5	0.1122909
4	0x3a424b16	0.00074117014
5	0xbc493aae	-0.012282057
6	0x3e2d4d98	0.16924131
7	0xbdf62eb8	-0.1202063
8	0xbe15fcf4	-0.14647275
9	0x3ca286fe	0.01983976
10	0x3dbe1d26	0.092829034
11	0x3e4afb66	0.19822463
12	0x3d7b3805	0.06133272
13	0xbe14ae8c	-0.1451971
14	0xbc98194d	-0.018566752
15	0x3e05ec4a	0.13078418
16	0x3e24c831	0.16091992
17	0x3cb26faf	0.02178177
18	0x3d544bd9	0.051830146
19	0xbd9431ec	-0.07236084
20	0xbd703d97	-0.058652487
21	0xbcfdd040	-0.03098309
22	0xbded6574	-0.11591616
23	0xbddbca1e	-0.1073191
24	0xbd822bc0	-0.06356001
25	0x3d01a0fa	0.03164766
26	0xbdf30065	-0.118653096
27	0xbdc9465c	-0.09827873
28	0x3d335f03	0.043791782
29	0x3bb19acf	0.005420066
30	0xbd5f0867	-0.054451372
31	0xbdf7a1fe	-0.120914444
32	0x3ded3c46	0.11583762
33	0x3cdea780	0.02717948
34	0x3e240637	0.16017996
35	0xbe713aac	-0.23557538
36	0xbdb2779d	-0.08714221
37	0x3e36b18c	0.17841166
38	0x3def4ce4	0.116845876
39	0xbb6d632f	-0.0036222448

model.param_proj.proj.1.weight f4 [1, 40]
0	0x3d1c6fe6	0.038192652
1	0x3dfcb33c	0.12338874
2	0x3d73803c	0.059448466
3	0x3e095357	0.13410698
4	0xbdd8ae75	-0.1058015
5	0x3df5ef22	0.120085016
6	0x3cde3a8d	0.027127529
7	0x3d715fc0	0.058929205
8	0xbe2a6371	-0.16639496
9	0xbc46f83b	-0.012144144
10	0x3d3244cc	0.04352264
11	0x3e18b60a	0.14913192
12	0x3ce09560	0.027414978
13	0xbbd8427c	-0.0065997224
14	0xbd08be2c	-0.033384487
15	0x3df4568d	0.11930571
16	0x3e156581	0.14589502
17	0x3dfeade1	0.124355085
18	0xbddbcb43	-0.107321285
19	0xbe21716d	-0.15765925
20	0xbdeb5503	-0.11490824
21	0xba832e77	-0.0010008354
22	0xbdaadd2a	-0.08342965
23	0x3cadd3ba	0.021219123
24	0x3e2b1150	0.16705823
25	0xbe0933a2	-0.13398603
26	0xbdc6c5ee	-0.09705721
27	0x3cb4b53c	0.022059076
28	0xbd81ea36	-0.063435
29	0x3d644d98	0.05573806
30	0xbdb0005a	-0.08593817
31	0xbca8cfd5	-0.020606915
32	0xbe2b78b9	-0.16745271
33	0x3d0c76e5	0.034293074
34	0xbc0aa2b1	-0.00846164
35	0x3d447848	0.04796627
36	0xbd6bdc01	-0.05758286
37	0x3d5d02df	0.053957816
38	0xbd6b1548	-0.057393342
39	0xbdd9a637	-0.10627406

model.param_proj.proj.2.weight f4 [1, 40]
0	0xbe6348ef	-0.2219579
1	0xbd8ea8c0	-0.0696578
2	0xbe15a2d9	-0.14612903
3	0x3d3f4667	0.046698
4	0x3d811e4c	0.06304607
5	0xbd449017	-0.047988977
6	0xbbe3d48a	-0.006952827
7	0x3d79e737	0.06101152
8	0xbd81946f	-0.063271396
9	0xbcbd8939	-0.023136722
10	0xbe4067d0	-0.18789601
11	0xbdedee83	-0.11617758
12	0x3df85b43	0.12126782
13	0x3e02decc	0.12780303
14	0x3dee3d49	0.11632783
15	0x3da24884	0.079239875
16	0xbd605121	-0.05476487
17	0xbe2a658b	-0.16640298
18	0x3df43876	0.119248316
19	0x3e122ef4	0.14275724
20	0xbd24c4c8	-0.040226728
21	0xbe56d782	-0.20980647
22	0xbdbcc6fa	-0.09217639
23	0x3d824bca	0.06362112
24	0xbe3e03c0	-0.18556118
25	0xbde1ec39	-0.11031384
26	0x3e411589	0.18855871
27	0xbe7cff80	-0.2470684
28	0xbe2f6e31	-0.17131878
29	0xbe269603	-0.16268162
30	0xbd541b50	-0.05178386
31	0xbc5fa593	-0.013650316
32	0x3d51a32a	0.051180996
33	0xbe4b2d54	-0.1984151
34	0xbe1b4b75	-0.15165503
35	0x3e3c409e	0.18384025
36	0xbe49cf30	-0.19707942
37	0xbe133c1a	-0.14378396
38	0x3e4b6d21	0.19865848
39	0xbb55ae13	-0.0032604977

model.rnn.weight_ih_l0 f4 [160, 32]
0	0x3d2bf23f	0.04197907
1	0x3dcc6559	0.09980268
2	0x3d682146	0.056672357
3	0x3d4d6dce	0.050153546
4	0x3df291c9	0.118442126
5	0xbbd5d219	-0.0065252897
6	0xbd5c161a	-0.053732015
7	0xbd7ccc5c	-0.06171833
8	0x3cd1aac4	0.025594123
9	0x3db82dab	0.089930855
10	0x3dbb767b	0.09153458
11	0xbd8b6454	-0.068062454
12	0x3d3a863c	0.045538172
13	0x3dfe55ab	0.124186836
14	0x3e39f55c	0.18160003
15	0xbd82a0a6	-0.063782975
16	0x3d8357b8	0.064132154
17	0x3dfe7fc5	0.12426714
18	0x3d81db86	0.06340699
19	0x3e322d4f	0.17400096
20	0x3e0f9c1b	0.14024393
21	0x3db8212d	0.08990703
22	0x3de3888e	0.1111003
23	0x3d5e0906	0.054207824
24	0x3d278440	0.040897608
25	0xbe06efee	-0.13177463
26	0xbc55a4cf	-0.013039782
27	0x3d76782e	0.060173206
28	0xbc9f167d	-0.019419903
29	0xbe0fd318	-0.1404537
30	0x3dbc6fa6	0.09200983
31	0xbdba3c40	-0.09093523
32	0x3d5b2f6c	0.053512022
33	0x3b4a140f	0.003083471
34	0x3dc4d04d	0.09610043
35	0x3de5d30f	0.11221897
36	0x3d81d739	0.063398786
37	0x3cf5ae03	0.029990202
38	0xbd995efb	-0.07488819
39	0xbd629f37	-0.05532762
40	0x3d88225a	0.06647177
41	0xbd762b70	-0.06010002
42	0x3e23d594	0.15999442
43	0x3e08fe41	0.1337824
44	0x3e0c287c	0.13687319
45	0xbe03dad9	-0.12876453
46	0x3bc50768	0.006012846
47	0x3b1b2703	0.0023674376
48	0xbb878d06	-0.0041366844
49	0x3c511a45	0.012762611
50	0xbe01cde0	-0.12676191
51	0xbd471ed3	-0.04861338
52	0xbe10b1bb	-0.14130299
53	0xbdef7cdc	-0.11693737
54	0x3b72b33f	0.0037033109
55	0xbdea8132	-0.11450423
56	0x3de88200	0.113529205
57	0xbde8109c	-0.11331293
58	0x3d87c945	0.06630186
59	0x3dca04c7	0.098641925
60	0xbce2987c	-0.0276606
61	0xbe02566a	-0.12728277
62	0x3d7ed064	0.062210456
63	0xbd60dd42	-0.054898508
64	0xbd2271af	-0.0396592
65	0x3e07923f	0.13239382
66	0x3e3d2272	0.18470171
67	0xbd68e058	-0.056854576
68	0xbd6d6bae	-0.05796402
69	0x3d978f49	0.07400376
70	0xbdb1ad40	-0.08675623
71	0x3defc4b0	0.11707437
72	0x3b3f8a21	0.0029226618
73	0xbcbf253d	-0.023333186
74	0xbddcae17	-0.107753925
75	0xbe01860e	-0.12648794
76	0xbd84c3c8	-0.06482655
77	0xbdd07761	-0.1017902
78	0x3e19bf99	0.15014495
79	0x3e05d141	0.13068105
80	0x3de819cc	0.11333045
81	0x3e0afe0e	0.13573477
82	0xbdf500fe	-0.1196308
83	0x3cb99bfc	0.022657387
84	0xbad643f2	-0.0016347154
85	0x3df23409	0.11826331
86	0xbd9547cc	-0.07289085
87	0xbdc9c366	-0.098517224
88	0x3dee25bd	0.11628292
89	0xbe0b2824	-0.13589531
90	0xbbb7781a	-0.005599034
91	0x3d537ee2	0.051634677
92	0xbde7c851	-0.11317504
93	0x3d6a5bd4	0.05721648
94	0xbd625d29	-0.055264626
95	0x3e3682bc	0.17823309
96	0x3e0ee05e	0.13952777
97	0x3ddb9b42	0.107229725
98	0xbd346a7d	-0.044046868
99	0x3e1f973c	0.15585035
100	0xba07f318	-0.0005186065
101	0xbdc008a4	-0.09376648
102	0x3dc1b4fe	0.0945835
103	0xbc269aab	-0.010168712
104	0x3df93e2d	0.12170062
105	0xbd4494f8	-0.04799363
106	0x3dfd11b4	0.12356892
107	0xbd7c6725	-0.061621804
108	0x3e25b0a6	0.16180667
109	0x3dcf49fd	0.10121534
110	0xbdc6f5a4	-0.09714821
111	0xbca21595	-0.019785682
112	0xbcef83d9	-0.029237675
113	0xbdf3629e	-0.11884044
114	0xbc3b4ac2	-0.011431398
115	0xbba889fe	-0.005143403
116	0xbdcb2f75	-0.09921161
117	0x3da6eff9	0.0815124
118	0x3d737687	0.05943921
119	0xbd88400d	-0.06652842
120	0x3d6c9dd3	0.0577677
121	0x3dc9f553	0.09861245
122	0x3c1347f3	0.008989322
123	0x3e03c177	0.1286677
124	0xbd8a6436	-0.06757395
125	0x3ddff6ca	0.10935743
126	0xbe0ac88a	-0.13553062
127	0xbd9b8102	-0.07592966
128	0x3d14e523	0.036351334
129	0xbdbc0301	-0.091802604
130	0x3ddd2ffd	0.10800169
131	0xbdc91e27	-0.09820204
132	0x3d82f447	0.063942485
133	0x3ce80b78	0.028325781
134	0x3e03e7bf	0.12881373
135	0xbde2c27c	-0.11072251
136	0x3e064091	0.13110568
137	0x3c7e9992	0.015539544
138	0x3c422a1a	0.011850858
139	0xbde7f4d4	-0.11325994
140	0x3d8158db	0.06315776
141	0xbe0a4ddd	-0.13506265
142	0xbe126cae	-0.1429927
143	0x3daf7e57	0.08569019
144	0x3d0821e6	0.033235453
145	0x3d06bd33	0.03289528
146	0x3dbf6c40	0.09346819
147	0xbcf13932	-0.029446218
148	0x3d27657b	0.040868264
149	0xbe1e187b	-0.15439026
150	0xbe29a06f	-0.16565107
151	0x3e09deb8	0.13463867
152	0x3dc275e4	0.09495142
153	0x3e1a595b	0.15073149
154	0xbce8ca21	-0.028416695
155	0xbd6106ca	-0.054938115
156	0x3df5e0ad	0.12005744
157	0xbc9db81a	-0.019252826
158	0xbd6c62de	-0.057711475
159	0x3e192de7	0.14958917
160	0x3dacb320	0.08432603
161	0x3e1ddac5	0.15415485
162	0xbd09ca8c	-0.03364043
163	0x3dee74b4	0.11643353
164	0x3d4f61f9	0.050630543
165	0x3d2f3210	0.042772353
166	0x3d96c7bd	0.07362316
167	0xbe1abe74	-0.15111715
168	0x3d319707	0.04335692
169	0xbd3678d7	-0.044548836
170	0xbdec9279	-0.11551375
171	0x3d47da33	0.048792075
172	0x3d820da9	0.06350262
173	0x3dade96b	0.084917866
174	0x3d6a5c5c	0.057216987
175	0x3d8d2ef5	0.06893722
176	0xbe0feb7a	-0.14054671
177	0x3db36b11	0.08760656
178	0xbdd209c2	-0.102557674
179	0x3cec49ad	0.028843725
180	0x3afeb61e	0.0019432937
181	0xbe052f6f	-0.13006376
182	0xbba284ba	-0.00495967
183	0x3b870029	0.004119892
184	0xbcbca57d	-0.02302813
185	0x3deb03fc	0.11475369
186	0xbdec2c71	-0.11531914
187	0xbd120280	-0.035646915
188	0x3e312fae	0.17303345
189	0xbd3a7d7c	-0.045529827
190	0xbd2df4d7	-0.042469826
191	0x3da24f0d	0.07925234
192	0x3d522728	0.051306874
193	0x3cc2e855	0.023792425
194	0xbcd6d13c	-0.026222818
195	0x3df6f753	0.12058892
196	0xbc830f8d	-0.015998626
197	0xbd93de4a	-0.07220133
198	0x3e1e5c33	0.15464859
199	0x3dc58c65	0.09645919
200	0x3dcd3540	0.10019922
201	0x3c941973	0.018078541
202	0x3dccffbb	0.10009714
203	0x3e0cebbb	0.13761799
204	0x3da3c830	0.07997167
205	0x3ca71048	0.020393506
206	0x3de4c80f	0.11170971
207	0x3dec6df5	0.1154441
208	0x3d2e6bb7	0.042583194
209	0x3cd23acf	0.025662808
210	0xbd707bb4	-0.058711722
211	0xbd676aa1	-0.056498174
212	0x3b5f225f	0.0034047586
213	0xbcd2e989	-0.025746124
214	0xbe1f78c4	-0.15573412
215	0x3d0facb2	0.035076804
216	0x3cdf1d96	0.027235787
217	0x3c22e60c	0.009942543
218	0xbdf6ab54	-0.12044397
219	0x3e1fcf31	0.15606381
220	0xbe0fd12f	-0.14044641
221	0xbd1331d3	-0.035936188
222	0x3d5b9149	0.05360535
223	0x3e11b27a	0.1422824
224	0xbddeb0df	-0.10873579
225	0xbc377d54	-0.011199314
226	0x3c41b905	0.011823897
227	0x3add05dd	0.0016862709
228	0x3cb35375	0.021890381
229	0x3dbcdd72	0.09221925
230	0xbcc65096	-0.024208348
231	0xbdd3e19e	-0.103457674
232	0xbdda8b8d	-0.106711484
233	0x3e20e73d	0.1571321
234	0x3e2449a3	0.16043715
235	0xbdd8260c	-0.10554132
236	0xbd9dda52	-0.07707657
237	0x3ca3deaf	0.020003645
238	0x3dda2fff	0.10653686
239	0x3df04b3b	0.11733099
240	0x3d4bc0bd	0.049744356
241	0x3d7ffe2b	0.062498253
242	0xbd3a3d1e	-0.045468442
243	0x3d5980ff	0.053101536
244	0xbd475a53	-0.048670124
245	0x3c1b0b3d	0.009463129
246	0xbdf81567	-0.12113457
247	0xbdeef086	-0.1166697
248	0x3cb306b7	0.021853788
249	0x3e3dd7ee	0.18539402
250	0x3cf4e26f	0.029893128
251	0xbdcf553b	-0.10123678
252	0xbd9dc95a	-0.077044204
253	0x3e157c86	0.14598283
254	0xbd63dd91	-0.055631224
255	0xbe10d597	-0.14143978

model.rnn.weight_hh_l0 f4 [160, 40]
0	0xbd55364d	-0.05205374
1	0xbd3718e6	-0.04470148
2	0x3bf82e0c	0.0075738486
3	0x3d674050	0.056457818
4	0xbd90aa9f	-0.070637934
5	0x3cea0ab7	0.028569562
6	0xbd848fe9	-0.06472761
7	0xbd8cfc39	-0.06884045
8	0x3e2124fe	0.15736768
9	0x3e2cc886	0.16873369
10	0xbd417f37	-0.047240462
11	0xbcc67bc7	-0.024228944
12	0xbc803807	-0.015651716
13	0x3bac90e1	0.0052662943
14	0xbe184fb8	-0.1487416
15	0xbcfa7988	-0.030575529
16	0x3ded1591	0.11576379
17	0xbc99a0de	-0.018753465
18	0x3d44d2db	0.04805265
19	0xbdc892d7	-0.097936325
20	0xbddb91dc	-0.1072118
21	0x3da5eb0c	0.08101472
22	0xbd556dd3	-0.05210669
23	0xbd7221a1	-0.059114102
24	0x3e344f5b	0.17608397
25	0xb7d25aa7	-2.5076164e-05
26	0x3cc2b40d	0.023767496
27	0xbdc81c76	-0.097710535
28	0x3df3d7a1	0.11906362
29	0x3d047885	0.0323415
30	0xbd9f35b6	-0.077739164
31	0x3c51bf48	0.012801953
32	0xbd919401	-0.07108308
33	0x3d6a75f8	0.05724141
34	0x3e120f9f	0.14263771
35	0xbd1ea530	-0.038731754
36	0x3dc41f06	0.0957623
37	0xbdbcef93	-0.09225383
38	0xbd1721a7	-0.036897328
39	0x3e3bb17a	0.1832942
40	0x3db7d916	0.08976953
41	0xbd1c2f7a	-0.038131215
42	0x3dfd629d	0.123723246
43	0xbdfaa369	-0.12238199
44	0x3d9aabd8	0.07552308
45	0x3e1ff9c2	0.15622619
46	0xbdbd6ac4	-0.092488796
47	0x3c0020ac	0.00782029
48	0x3d70a709	0.058753047
49	0xbd5668d6	-0.052346073
50	0x3db02721	0.08601213
51	0xbc909d98	-0.017653272
52	0xbd1f4d22	-0.03889192
53	0xbddd94a9	-0.1081937
54	0xbcb4932a	-0.02204283
55	0xbd94399d	-0.07237551
56	0x3da0c5e6	0.07850246
57	0xbdac8c79	-0.084252305
58	0xbd801610	-0.06254208
59	0xbd9bbb8f	-0.07604133
60	0xbda8c0e8	-0.08239919
61	0x3d388914	0.045052603
62	0xbb4b6268	-0.0031033996
63	0x3c876d1f	0.016531525
64	0xbd179387	-0.037005927
65	0x3c0a70ed	0.008449775
66	0xbd8ac320	-0.067754984
67	0x3dbe88de	0.09303449
68	0xbdd546a6	-0.10413866
69	0x3d973be8	0.07384473
70	0xbcb55b3d	-0.022138232
71	0xbddb84e0	-0.10718703
72	0x3db06416	0.0861284
73	0xbddcd8d8	-0.10783547
74	0xbd41ee9c	-0.047346696
75	0x3e36fc08	0.1786958
76	0x3e128674	0.14309102
77	0xbcc067fc	-0.023487084
78	0xbce9307b	-0.0284655
79	0x3d84a0ce	0.064759836
80	0x3e098d61	0.13432838
81	0x3dbd8322	0.09253527
82	0x3d8eb866	0.06968765
83	0xbe1fa378	-0.15589702
84	0xbdafb4d1	-0.0857941
85	0x3e048f9d	0.12945409
86	0xbdaf86a2	-0.08570601
87	0x3e049d27	0.12950574
88	0x3cf000f0	0.029297322
89	0xbd13fcc3	-0.036129724
90	0x3e2d4c1f	0.16923569
91	0x3e0f3497	0.13984905
92	0x3dfd364c	0.12363872
93	0xbd8643bb	-0.06555887
94	0x3de26f9c	0.11056444
95	0xbdb21a6b	-0.08696445
96	0x3dd6fabc	0.104970425
97	0x3ca235d4	0.019801058
98	0x3e0ce5c8	0.1375953
99	0x3dbb37b6	0.091414854
100	0xbe24534a	-0.16047397
101	0xbceeda32	-0.029156778
102	0xbd390250	-0.04516822
103	0xbd8723e6	-0.06598644
104	0x3e197b7c	0.14988512
105	0xbe38a111	-0.18030192
106	0xbc59895b	-0.013277377
107	0xbd0b558d	-0.034017134
108	0x3de73911	0.112901814
109	0x3d8438e2	0.06456162
110	0x3e029d2d	0.1275527
111	0x3d5dad3e	0.054120295
112	0xbd5431b9	-0.05180523
113	0x3dcdddb7	0.100520544
114	0x3e3077bd	0.17233177
115	0x3dafe566	0.08588676
116	0x3dcd3b13	0.10021033
117	0xbdb356de	-0.08756803
118	0xbd5ddbdd	-0.054164756
119	0x3dfd7d95	0.123774685
120	0xbe122cab	-0.14274852
121	0xbe06a8b6	-0.13150296
122	0xbd77a148	-0.060456544
123	0xbd1b0600	-0.03784752
124	0x3d87d003	0.06631472
125	0x3e264d4e	0.16240427
126	0x3d5adeae	0.05343502
127	0xbbfcce54	-0.007715026
128	0xbd87474d	-0.066053964
129	0xbe07a3ce	-0.1324608
130	0x3dae7cce	0.08519898
131	0x3e0d038e	0.13770887
132	0xbd0b8239	-0.034059737
133	0xbe278b65	-0.16361769
134	0x3d7297d4	0.059226826
135	0x3e2c6adf	0.16837643
136	0x3dcdb5e8	0.100444615
137	0x3d65a434	0.0560648
138	0x3da329f8	0.07966989
139	0x3e1393e7	0.14411889
140	0xbdd9f017	-0.10641497
141	0xbdf1aec5	-0.11800913
142	0xbd8a0e2d	-0.06740985
143	0x3df21b70	0.118216395
144	0xbd38c92d	-0.04511373
145	0x3df39eb8	0.118955076
146	0xbe233e11	-0.15941645
147	0xbe2658f0	-0.16244864
148	0x3bec3c23	0.0072093173
149	0x3dbe5ee6	0.09295444
150	0xbd99dd10	-0.075128675
151	0x3b884def	0.004159681
152	0xbad32944	-0.001611032
153	0xbe0a3320	-0.13496065
154	0x3e334bea	0.17509428
155	0xbad03c26	-0.0015887066
156	0xbd6a8be1	-0.057262305
157	0x3dd8e970	0.105914
158	0xbe067575	-0.13130744
159	0xbe2df15f	-0.16986607
160	0x3d99edf0	0.07516086
161	0xbceabf2e	-0.028655615
162	0x3d585023	0.0528108
163	0xbd318544	-0.043339983
164	0xbbbebc14	-0.0058207605
165	0xbd94eee7	-0.072721295
166	0xbd944445	-0.07239584
167	0x3e566710	0.20937753
168	0x3da1310c	0.07870683
169	0xbdbb0603	-0.09132006
170	0xbda17e5a	-0.07885428
171	0x3e10af0e	0.14129278
172	0x3dc9c3fb	0.098518334
173	0xbda477b7	-0.08030646
174	0xbd7c2b2e	-0.061564617
175	0x3df36230	0.11883962
176	0xbe00487a	-0.12527648
177	0x3ce60277	0.028077347
178	0xbe02dd40	-0.12779713
179	0x3d998f25	0.07498006
180	0xbde6b20d	-0.11264429
181	0xbd1addac	-0.03780906
182	0x3e1bafd3	0.1520379
183	0x3da8a722	0.08235003
184	0x3dca673c	0.09882972
185	0xbd8df4e0	-0.06931472
186	0x3d492c72	0.049114652
187	0xbdd30a5b	-0.103047095
188	0xbdaad05b	-0.08340522
189	0xbd8d9a3a	-0.06914182
190	0x3aa473fc	0.0012546773
191	0xbda86bac	-0.08223662
192	0xbbd50a38	-0.0065014623
193	0x3e0b2c5c	0.1359114
194	0xbc954bf3	-0.018224692
195	0x3d5dfd57	0.05419668
196	0x3db6d5bf	0.089274876
197	0x3cac1d22	0.021009985
198	0xbd0782e4	-0.03308381
199	0xbcf9c16d	-0.03048774
200	0x3df376f7	0.11887925
201	0xbd9c5dbd	-0.07635067
202	0x3e0a4228	0.13501799
203	0x3e0ecc99	0.13945235
204	0x3dbd83d8	0.09253663
205	0xbd8de798	-0.069289386
206	0xbc8a01e7	-0.01684661
207	0x3de3fc34	0.11132088
208	0x3dc324b9	0.09528489
209	0x3dfba3f8	0.12287134
210	0xbdd03ae9	-0.10167486
211	0x3bda73f2	0.006666654
212	0xbd777686	-0.060415767
213	0x3dee6e90	0.11642182
214	0xbd89571e	-0.067060694
215	0xbe056a95	-0.13028939
216	0xbddd9365	-0.10819129
217	0xbe0e1785	-0.1387616
218	0x3d062d90	0.032758296
219	0xbcedef1a	-0.029044677
220	0xbdbafa64	-0.091297895
221	0x3e114795	0.14187463
222	0x3d75923b	0.05995391
223	0xbd9a7d54	-0.07543436
224	0x3e1c7396	0.15278468
225	0x3ccd6710	0.025073558
226	0x3c998973	0.018742299
227	0xbd2afb28	-0.041743428
228	0x3d151371	0.036395494
229	0x3dcc74b2	0.09983195
230	0x3e1add02	0.1512337
231	0xbd93adaa	-0.07210858
232	0xbccf15a6	-0.025278877
233	0x3d079800	0.033103943
234	0xbe19e84c	-0.1503002
235	0x3debadaf	0.11507737
236	0x3cf30a63	0.029668039
237	0x3e04fdb9	0.12987413
238	0x3c82efa8	0.015983418
239	0x3dccfa57	0.10008686
240	0xbe41b24b	-0.1891567
241	0xbe02d67d	-0.12777133
242	0x3e090600	0.13381195
243	0xbd0998de	-0.03359305
244	0x3af4208a	0.001862542
245	0x3dd9face	0.1064354
246	0x3db8d57b	0.09025093
247	0xbb4edbaf	-0.0031564047
248	0xbd298210	-0.041383803
249	0xbcbc3206	-0.022973072
250	0x3e0c39e1	0.13693954
251	0xbd80765b	-0.062725745
252	0xbd3f4487	-0.046696212
253	0x3d643977	0.055718865
254	0x3d80f52c	0.06296763
255	0xbdd284f9	-0.10279269

model.rnn.bias_ih_l0 f4 [160]
0	0x3dcdee30	0.10055196
1	0x3e179373	0.14802341
2	0x3e37fa15	0.17966492
3	0xbdac962d	-0.08427081
4	0xbde1aa74	-0.110188395
5	0xbe039519	-0.12849845
6	0x3dfebb5d	0.124380805
7	0x3df15bc4	0.11785081
8	0xbdf91373	-0.12161913
9	0x3dbd9201	0.09256364
10	0x3de615c3	0.112346195
11	0x3c09fc91	0.008422033
12	0x3da7fa95	0.082020916
13	0xbd8b7467	-0.06809311
14	0x3e24a13b	0.1607713
15	0xbd598d18	-0.053113073
16	0x3c5390be	0.012912927
17	0x3d3f2aaa	0.046671547
18	0xbddcc5a1	-0.10779882
19	0xbcb33b6e	-0.021878924
20	0x3e051acb	0.12998502
21	0x3e14facf	0.14548801
22	0x3d7ad7cc	0.061240956
23	0x3e24272d	0.1603057
24	0xbd2a3a39	-0.04155943
25	0xbd9cb801	-0.076522835
26	0x3c3558d8	0.011068545
27	0xbdfa2088	-0.12213236
28	0x3b62746f	0.0034554263
29	0xbd00c036	-0.031433307
30	0xbe12a588	-0.14320958
31	0xbd5904cf	-0.0529831
32	0xbb12b356	-0.0022384725
33	0x3c179718	0.009252332
34	0xbcef784f	-0.029232172
35	0x3df624ef	0.12018763
36	0xbe0944e6	-0.13405189
37	0xbda663d9	-0.08124513
38	0x3cd6077f	0.026126621
39	0x3dba7927	0.09105139
40	0x3c0b82b2	0.008515047
41	0xbdf9bb24	-0.12193897
42	0xbdca6ac0	-0.09883642
43	0x3df14908	0.11781508
44	0x3dd893b4	0.10575047
45	0x3cc3e207	0.02391149
46	0x3d8102c7	0.06299358
47	0x3d6e13ce	0.058124356
48	0x3e068d10	0.13139749
49	0x3e02771c	0.12740749
50	0x3e20678e	0.15664503
51	0xbdd60bb2	-0.104514495
52	0x3df035c3	0.11729004
53	0x3c3297c7	0.010900444
54	0xbd048744	-0.03235556
55	0x3dc20769	0.094740696
56	0xbbee85c7	-0.007279131
57	0x3e1e7da2	0.15477613
58	0xbdd7d702	-0.10539056
59	0x3df13f84	0.11779693
60	0xbcec4ede	-0.0288462
61	0xbdeede8a	-0.1166354
62	0xbda8ad77	-0.08236211
63	0xbda19d41	-0.07891322
64	0x3d72e175	0.059297044
65	0xbe01a6f5	-0.12661345
66	0x3db79878	0.08964628
67	0xbd0659d1	-0.0328005
68	0xbdbe3ffd	-0.092895485
69	0xbdcbd051	-0.099518426
70	0x3de57348	0.11203629
71	0xbe1011a4	-0.1406923
72	0xbdf4943c	-0.11942336
73	0xbd4c7a1f	-0.04992115
74	0xbd301ec6	-0.042998098
75	0x3de3db5f	0.11125826
76	0x3d7724ad	0.06033771
77	0x3d024141	0.031800512
78	0x3e09339a	0.1339859
79	0xbd8c4a5e	-0.06850122
80	0xbd0adaae	-0.033899955
81	0x3c902eb0	0.017600387
82	0xbda0971d	-0.078413226
83	0x3d2210ed	0.039566923
84	0xbd284ce3	-0.04108895
85	0x3db00a09	0.08595664
86	0x3d91b8a2	0.07115294
87	0xbdb971fb	-0.09054943
88	0x3e000b76	0.12504372
89	0xbd900fae	-0.07034241
90	0x3e2590c2	0.16168502
91	0x3c17ecd8	0.009272777
92	0xbe3044ab	-0.17213695
93	0x3e087145	0.13324459
94	0x3cbe80a0	0.023254693
95	0x3dbaa49c	0.09113428
96	0x3e0713f5	0.13191207
97	0xbdb4c14a	-0.088259295
98	0x3d5be794	0.053687647
99	0x3e06de75	0.13170798
100	0x3e1c53de	0.15266368
101	0x3d9f932b	0.07791742
102	0xbe1409ea	-0.14456907
103	0xbd22d4cb	-0.039753716
104	0x3bc7ca77	0.0060971337
105	0xbe0fcf04	-0.14043814
106	0xbc51180b	-0.01276208
107	0xbde5903a	-0.1120915
108	0xbe123c46	-0.14280805
109	0x3de2595d	0.11052201
110	0xbdb50c60	-0.08840251
111	0xbc1513a6	-0.009098923
112	0x3d97622f	0.07391774
113	0xbd17cf73	-0.037063073
114	0x3b2243a4	0.0024759555
115	0xbd8b0180	-0.067873955
116	0xbde4d8eb	-0.11174186
117	0xbcd8483e	-0.026401635
118	0xbd8f203d	-0.06988571
119	0x3b0650b3	0.0020494878
120	0xbcf2c699	-0.029635714
121	0x3cbd2fdd	0.023094112
122	0x3c876dce	0.016531851
123	0x3d7ac9a7	0.061227467
124	0xbde000d3	-0.10937657
125	0x3df6a434	0.12043038
126	0x3e15f284	0.14643294
127	0xbcbc6da1	-0.023001494
128	0xbda53344	-0.08066419
129	0xbdaa399d	-0.0831177
130	0xbd366ae4	-0.044535533
131	0x3db73f9f	0.08947682
132	0x3b033523	0.0020020686
133	0xbd57d31a	-0.052691557
134	0xbcfd3db8	-0.030913219
135	0x3d80be16	0.06286256
136	0xbddde01a	-0.108337596
137	0xbdeecc90	-0.11660111
138	0x3dee7259	0.11642904
139	0xbd195656	-0.037435852
140	0xbc5bfcf6	-0.01342701
141	0x3e043a56	0.12912878
142	0xbc7a3b72	-0.015272962
143	0x3d8ac2e7	0.06775456
144	0xbdbd4fd0	-0.09243739
145	0x3c9144a5	0.017732928
146	0xbe0cfd0c	-0.13768405
147	0x3da9ef5c	0.08297607
148	0x3decc849	0.11561639
149	0xbd9d101e	-0.0766909
150	0x3d5d7184	0.054063335
151	0x3d8cd415	0.06876389
152	0x3d2d8ef9	0.042372677
153	0xbd910aa2	-0.07082106
154	0x3e29ef6f	0.16595243
155	0x3ba5c613	0.0050590127
156	0x3df915ff	0.121623985
157	0x3b9780d3	0.0046235113
158	0x3e1354e3	0.1438785
159	0x3e0485e8	0.12941706

model.rnn.bias_hh_l0 f4 [160]
0	0x3df92338	0.121649206
1	0xbd8dfdc7	-0.0693317
2	0x3e089e6f	0.13341688
3	0x3b23b6be	0.002498075
4	0xbd792fc1	-0.060836557
5	0x3c1c4630	0.009538218
6	0x3e26247c	0.16224855
7	0x3e27ed6a	0.1639916
8	0xbdb81557	-0.08988445
9	0xbc000b2e	-0.007815165
10	0x3c026994	0.007959742
11	0xbdce5306	-0.10074429
12	0x3d1094ef	0.035298284
13	0xbd777728	-0.06041637
14	0x3d2e5260	0.042559028
15	0x3dd5f48b	0.104470335
16	0x3d532779	0.051551316
17	0xbaf486d8	-0.0018655909
18	0xbda6cf8b	-0.081450544
19	0xbdf8c4d6	-0.121469185
20	0xbda41b85	-0.080130614
21	0xbdead330	-0.11466062
22	0x3d320f03	0.043471348
23	0x3cb77623	0.0223952
24	0x3dab86e2	0.08375336
25	0xbd61eacd	-0.055155564
26	0x3d2ec000	0.042663574
27	0xbd4e7def	-0.05041307
28	0xbdd705fa	-0.10499187
29	0x3c548db7	0.012973241
30	0xbdbc88a1	-0.092057474
31	0xbc6c11f3	-0.014408576
32	0xbd53593a	-0.051598765
33	0x3deaa986	0.11458115
34	0xbe098b66	-0.13432083
35	0x3dcf90bc	0.10135028
36	0x3d486366	0.04892292
37	0x3a485095	0.0007641402
38	0x3e0cdf1e	0.13756987
39	0xbe250b8c	-0.16117686
40	0x3d33ae13	0.043867182
41	0xbdfb2770	-0.122633815
42	0xbdc952be	-0.09830235
43	0x3e33c573	0.1755579
44	0x3e09e510	0.13466287
45	0xbdba91cc	-0.0910984
46	0x3defae0f	0.11703121
47	0xbe1ce52a	-0.15321794
48	0xbd8b88d5	-0.06813208
49	0x3db1fd37	0.08690875
50	0xbd302c08	-0.04301074
51	0xbd60c1ed	-0.054872442
52	0x3d859407	0.065223746
53	0xbd94f156	-0.07272594
54	0x3d81e06b	0.063416325
55	0xbd349f21	-0.04409707
56	0x3e35019c	0.17676395
57	0xbc300b82	-0.010744931
58	0xbd95d2c1	-0.07315589
59	0xbe01ef9e	-0.12689063
60	0x3dc19f8d	0.0945426
61	0x3ceaad13	0.028646981
62	0xbdee48f7	-0.11635011
63	0xbe0ecb30	-0.13944697
64	0xbde9b3f6	-0.11411278
65	0x3da9c21a	0.08288975
66	0x3d4e4d52	0.050366707
67	0x3dc63ee7	0.096799664
68	0x3d84b042	0.06478931
69	0xbdd28853	-0.10279908
70	0xbdca6819	-0.09883136
71	0xbca10637	-0.019656284
72	0x3e2526c5	0.1612807
73	0xbd986b8c	-0.07442388
74	0xbd58e1d6	-0.05294975
75	0xbdb2fc85	-0.087395705
76	0xbdd4cbce	-0.10390435
77	0x3e320d6f	0.17387937
78	0x3e2a33b7	0.1662129
79	0xbd48b358	-0.04899916
80	0x3cb71a41	0.022351386
81	0xbc322f44	-0.010875527
82	0xbd194440	-0.037418604
83	0x3df28d1b	0.1184332
84	0xbdc5995c	-0.096483916
85	0xbdb9431b	-0.090460025
86	0xbd9b6f18	-0.07589549
87	0xbda6c657	-0.08143299
88	0xbde53aa6	-0.11192827
89	0x3df599c9	0.11992223
90	0x3e28b784	0.16476256
91	0xbe2a9e8e	-0.16662046
92	0xbde86bc6	-0.11348681
93	0xbbd7fae6	-0.0065911887
94	0xbba775de	-0.0051104864
95	0xbe12d644	-0.14339548
96	0xbddff3b2	-0.10935153
97	0x3dd0b73a	0.10191198
98	0x3e170b5b	0.14750426
99	0xbdfca7fd	-0.12336729
100	0x3e127ed0	0.14306188
101	0x3e2bb05a	0.16766492
102	0x3da9ad8b	0.08285054
103	0x3a95a5b8	0.0011417186
104	0x3cf7fde2	0.030272428
105	0x3dcd5121	0.1002524
106	0xbd8f8fab	-0.07009824
107	0xbe0fb11c	-0.14032406
108	0x3c18aa29	0.009317913
109	0xbd350130	-0.044190586
110	0x3d205d9f	0.039151784
111	0xbc75e8f7	-0.015009156
112	0xbabf0cf0	-0.0014575999
113	0x3cf1c60e	0.029513385
114	0xbbcfea90	-0.0063451007
115	0x3dd6ec4b	0.10494288
116	0xba927632	-0.0011174141
117	0x3d8c529b	0.06851693
118	0x3be73ae1	0.0070565795
119	0xbe005e75	-0.12536032
120	0xbdd215cd	-0.102580644
121	0xbd37c48d	-0.04486518
122	0x3e16565d	0.14681382
123	0xbd1d96d5	-0.038473923
124	0xbdf06951	-0.117388375
125	0xbdc95e03	-0.098323844
126	0x3ddbfa12	0.107410565
127	0xbdc23d1e	-0.094843134
128	0xbe038086	-0.12841997
129	0x3e2f51a7	0.17120992
130	0x3d28669d	0.041113485
131	0x3c7f57a8	0.015584864
132	0x3df3fdfc	0.11913678
133	0x3e2c407b	0.16821472
134	0x3e39160f	0.18074821
135	0x3d8a9641	0.0676694
136	0x3e2dd613	0.16976194
137	0x3d02d806	0.031944297
138	0x3e1ed3bb	0.15510456
139	0x3e2a7133	0.16644745
140	0xbda68256	-0.08130328
141	0xbd45061c	-0.04810153
142	0x3d19d2be	0.037554495
143	0x3c92b125	0.017906735
144	0x3dcad65f	0.09904169
145	0x3c9eb885	0.019375095
146	0x3d37accc	0.044842526
147	0xbd322b92	-0.043498583
148	0x3d618cdd	0.05506598
149	0xbd94377c	-0.07237145
150	0xbdbb9d96	-0.091609165
151	0xbdcfda8e	-0.10149108
152	0xbd8b873c	-0.06812903
153	0xbdff7a70	-0.12474525
154	0x3daa386a	0.083115414
155	0xbe1dded5	-0.15417035
156	0x3e0f4b38	0.13993537
157	0x3db52643	0.088451885
158	0x3d92e544	0.07172635
159	0xbd449661	-0.047994975

model.rnn.weight_ih_l1 f4 [160, 40]
0	0xbcce6306	-0.025193702
1	0xbd4aaeb0	-0.049483
2	0x3da7543d	0.08170364
3	0xbd366b21	-0.04453576
4	0xbd9371c7	-0.07199436
5	0xbdec2848	-0.115311205
6	0xbd823dbc	-0.06359431
7	0x3e0e062a	0.13869539
8	0xbda08cff	-0.07839393
9	0xbdb0ddd8	-0.08636063
10	0x3e4517b3	0.19247322
11	0x3b653ce9	0.0034978932
12	0xbdcfaa11	-0.101398595
13	0x3d958d08	0.0730229
14	0x3c683bbe	0.0141744
15	0x3e3fa66b	0.18715827
16	0x3d5ca447	0.053867605
17	0x3c8bb076	0.017051917
18	0x3df86ed4	0.12130514
19	0x3df48a72	0.11940469
20	0xbd512109	-0.051056895
21	0xbdb678bd	-0.08909748
22	0xbdcdbd01	-0.10045815
23	0xbd0a4828	-0.03376022
24	0xbd61e885	-0.05515339
25	0xbd0dd2fe	-0.034625046
26	0xbe0398bf	-0.12851237
27	0x3dcbd004	0.09951785
28	0x3d936e3f	0.07198762
29	0x3e2784a0	0.16359186
30	0x3d99ef0c	0.07516298
31	0x3d2bd49a	0.0419508
32	0xbe41a8da	-0.18912068
33	0xbe2750f9	-0.16339482
34	0xbddeb2f2	-0.10873975
35	0x3cad9bcf	0.02119246
36	0xbe0eba44	-0.13938242
37	0xbcb7d2bd	-0.022439355
38	0xbe41cbb0	-0.18925357
39	0x3e0b66dd	0.13613458
40	0xbd238532	-0.039921947
41	0x3dcbd866	0.09953384
42	0x3e16f532	0.14741972
43	0x3a48d3f8	0.00076609803
44	0xbcb08d4b	-0.021551749
45	0xbd40959f	-0.04701769
46	0xbdb0343f	-0.08603715
47	0xbd400a60	-0.046884894
48	0xbda8131d	-0.082067706
49	0x3e19a18e	0.15003034
50	0xbcf8e0f9	-0.030380713
51	0x3ded3810	0.11582959
52	0xbd8b0d60	-0.067896605
53	0xbda1e408	-0.07904822
54	0x3d908e48	0.07058388
55	0xbe1f50e5	-0.15558203
56	0x3d29c233	0.04144497
57	0xbe13d87e	-0.14438054
58	0x3db4655b	0.088083945
59	0xbe268171	-0.16260315
60	0x3cc8d9b7	0.024517877
61	0x3d691767	0.056907084
62	0x3d774711	0.06037051
63	0xbd525771	-0.051352922
64	0x3d32595b	0.043542247
65	0x3d344d64	0.044019118
66	0x3e0b5cfe	0.13609692
67	0x3dcc3e97	0.099728756
68	0xbdd497ce	-0.10380517
69	0xbe18eaa2	-0.14933255
70	0x3cb66f5d	0.022269899
71	0x3dc897f3	0.09794607
72	0x3d16552b	0.036702316
73	0xbdad68de	-0.084672675
74	0xbdc0f156	-0.09421031
75	0xbd2603a0	-0.0405308
76	0xbde5698d	-0.11201773
77	0x3df591fe	0.119907364
78	0xbb888a22	-0.0041668573
79	0xbd7ad403	-0.061237346
80	0xbde8a46f	-0.11359488
81	0xbd2706e4	-0.040778056
82	0xbe21b574	-0.15791875
83	0x3c2d2484	0.010567788
84	0x3ddd8aea	0.108175114
85	0x3d571536	0.052510463
86	0xbc617dc5	-0.013762896
87	0xbd3fe4c6	-0.046849035
88	0x3df45094	0.119294316
89	0xbdfc1894	-0.123093754
90	0x3e479adb	0.19492666
91	0x3b6f22cc	0.0036489246
92	0xbdbcfb13	-0.09227576
93	0xbe2f9068	-0.1714493
94	0xbc001715	-0.007818003
95	0xbdcad450	-0.09903777
96	0xbd18ed57	-0.03733572
97	0xbb94755f	-0.0045305933
98	0x3da2b35c	0.07944366
99	0x3de77eeb	0.113035046
100	0x3db21121	0.08694673
101	0x3b37cce1	0.0028045701
102	0xbe03dc55	-0.12877019
103	0xbe0ae339	-0.13563241
104	0xbd2f31d7	-0.04277214
105	0xbd4f8bf7	-0.05067059
106	0xbdba6f54	-0.091032654
107	0xbe10b3e3	-0.14131121
108	0xbd15bfe6	-0.03655996
109	0xbcdae918	-0.026722476
110	0x3e0da9cf	0.13834308
111	0xbd80bddb	-0.06286212
112	0xbdd81c56	-0.1055228
113	0xbd6dc6a5	-0.05805077
114	0xbd4eb4bc	-0.05046533
115	0xbe22d558	-0.15901697
116	0xbdfa75ad	-0.12229476
117	0xbdcfde67	-0.10149842
118	0xbceb2e6b	-0.028708657
119	0xbe22d6de	-0.15902278
120	0x3c5c1274	0.013432134
121	0x3c9c1ef9	0.019057738
122	0xbb6707c2	-0.0035252427
123	0xbcdf44ae	-0.027254429
124	0xbc7795fa	-0.015111441
125	0xbd18a7c2	-0.03726936
126	0x3ce736a9	0.028224306
127	0x3dcff3c8	0.101539195
128	0x3bd71c0d	0.006564623
129	0xbe0627f3	-0.13101177
130	0x3df79fb8	0.12091011
131	0x3c6bc471	0.014390097
132	0x3be2212a	0.006900926
133	0x3d16b7e1	0.036796454
134	0xbe233c1b	-0.15940897
135	0x3db39fbe	0.08770703
136	0x3d63367a	0.055471875
137	0x3722a7c0	9.69501e-06
138	0xbd006a56	-0.03135141
139	0x3d936645	0.07197241
140	0x3e2579bf	0.16159724
141	0x3e124343	0.14283471
142	0xbe0cb004	-0.1373902
143	0x3d5edc79	0.054409478
144	0x3db1bc72	0.08678521
145	0x3df6d2d3	0.1205193
146	0xbca01889	-0.01954295
147	0x3db6c171	0.08923615
148	0x3bee3811	0.007269867
149	0xbd95a7da	-0.07307406
150	0x3e06580e	0.13119528
151	0x3e1b7aac	0.15183514
152	0x3dfd9170	0.123812556
153	0x3db8deca	0.09026869
154	0xbd0cd4cf	-0.034382638
155	0x3c295c52	0.010336952
156	0xbe185ad3	-0.14878397
157	0x3d807d81	0.06273938
158	0xbce37950	-0.027767807
159	0x3d3c1a0a	0.04592327
160	0xbe1e8435	-0.1548012
161	0xbcb9ffc8	-0.022704974
162	0x3de8fd8e	0.11376487
163	0xbdbc1961	-0.09184528
164	0xbd64d97b	-0.055871468
165	0x3d66a3d7	0.056308594
166	0x3c46bed3	0.012130457
167	0x3df1929f	0.11795544
168	0xbbb47a39	-0.005507734
169	0x3e1e5b53	0.15464525
170	0xbcc75dee	-0.024336781
171	0xba4b812f	-0.00077630853
172	0x3c6a838f	0.014313593
173	0xbe24dd0b	-0.16099946
174	0x3d684ab3	0.056711864
175	0xbd858bee	-0.0652083
176	0x3de44742	0.11146404
177	0x3d9bdde3	0.07610681
178	0x3de3903d	0.11111496
179	0xbc06999e	-0.008215336
180	0xbd32fc0b	-0.0436974
181	0x3dff8231	0.12476004
182	0x3bd3098b	0.0064403466
183	0xbbc31bf0	-0.005954258
184	0xbc02fe62	-0.00799522
185	0xbd4a01ca	-0.049318112
186	0x3d42d696	0.047567926
187	0xb899be4c	-7.331054e-05
188	0x3c82cacb	0.01596584
189	0x3e214a31	0.15750958
190	0x3ddfa320	0.109197855
191	0xbd6a0bc2	-0.05714012
192	0x3d98444c	0.074349016
193	0xbe1eaa6e	-0.15494701
194	0xbd891dd0	-0.066951394
195	0xbdc82206	-0.097721145
196	0xbe3d50df	-0.18487881
197	0xbe0df37c	-0.13862413
198	0x3d920689	0.07130153
199	0xbd946275	-0.07245342
200	0xba7a07b4	-0.0009537891
201	0x3c8b2913	0.01698736
202	0x3d773c74	0.060360387
203	0x3dd7480e	0.1051179
204	0xbd9d8ee7	-0.07693272
205	0x3c2f6c3f	0.01070696
206	0x3c908eda	0.017646242
207	0xbe14d81f	-0.14535569
208	0x3e137e32	0.14403608
209	0x3d6c77ac	0.057731315
210	0x3e1baab7	0.15201841
211	0xbe1cb4b2	-0.15303305
212	0x3df7c018	0.12097186
213	0x3d2c9e47	0.042143133
214	0xbe315c79	-0.17320432
215	0x3dda58ad	0.10661445
216	0x3d4a912f	0.049454864
217	0xbd0bd0fd	-0.034134854
218	0xbd5071d7	-0.050889816
219	0x3d87b9e2	0.06627251
220	0xbce2f726	-0.02770574
221	0xbdd0f3bc	-0.10202739
222	0xbd98cd4a	-0.07461031
223	0xbda7c128	-0.081911385
224	0x3d950db8	0.07278007
225	0xbd95430e	-0.0728818
226	0xbd192528	-0.03738895
227	0x3da27ef2	0.07934369
228	0xbe255424	-0.16145378
229	0x3df30d71	0.11867798
230	0xbd41b0f1	-0.047287885
231	0x3da1b55d	0.078959204
232	0xbb538c04	-0.00322795
233	0x3d50dcea	0.05099193
234	0xbe120d92	-0.14262989
235	0xbe2d738c	-0.16938609
236	0x3d2fbfc7	0.042907503
237	0x3d28a654	0.041174248
238	0x3d854b9c	0.06508562
239	0xbd9ce73a	-0.076612905
240	0x3d43ec85	0.047832984
241	0x3e00f714	0.12594253
242	0x3c0fe68a	0.008782992
243	0x3cd3d73f	0.025859473
244	0x3d17d800	0.037071228
245	0xbc905372	-0.017617915
246	0xbdfd284f	-0.12361204
247	0x3d6b73ad	0.057483364
248	0xbdef1317	-0.11673563
249	0x3d11b5e7	0.035573866
250	0xbccde108	-0.025131717
251	0xbbcd5d8e	-0.006267256
252	0x3d9f6170	0.077822566
253	0x3dfe6e6f	0.12423407
254	0x3dd2d761	0.102949865
255	0x3d7e1e93	0.062040877

model.rnn.weight_hh_l1 f4 [160, 40]
0	0xbb454f1e	-0.0030106972
1	0x3bf8d232	0.0075934166
2	0x3d844914	0.06459251
3	0x3dc980d1	0.09839023
4	0xbe34c68d	-0.17653866
5	0xbc53e433	-0.012932825
6	0x3d7e8775	0.0621409
7	0xbd9c3c50	-0.07628691
8	0x3d10e183	0.035371315
9	0x3dd63e5c	0.10461113
10	0xbd982a13	-0.074299
11	0x3dd60de6	0.1045187
12	0x3ca0e999	0.019642638
13	0xbe13365f	-0.1437621
14	0xbd0b1fbf	-0.033965822
15	0xbbdf8230	-0.0068209395
16	0x3e1ccafd	0.15311809
17	0x3db8ae8f	0.090176694
18	0xbc410dd4	-0.011783082
19	0x3d9c38b2	0.07628001
20	0xbbdc22b3	-0.0067180037
21	0x3db9f0cf	0.09079134
22	0x3d86e149	0.065859385
23	0xbe0d3680	-0.13790321
24	0xbd93d4bb	-0.072183095
25	0x3d47d604	0.048788086
26	0x3d9acacb	0.07558211
27	0x3d455798	0.04817924
28	0x3dc48bd9	0.09596986
29	0xbcd429a5	-0.025898764
30	0xbd99ca6c	-0.07509312
31	0x3d4b47f1	0.049629156
32	0xbe277829	-0.16354431
33	0x3d15554b	0.036458295
34	0x3d8590d3	0.06521764
35	0xbd2fa63d	-0.042883147
36	0xbce553ae	-0.027994003
37	0xbdde7a2a	-0.10863145
38	0x3e055754	0.13021594
39	0xbe0db3db	-0.1383814
40	0xbe07de68	-0.13268435
41	0x3e25e2f8	0.16199863
42	0xbe28f4f7	-0.16499697
43	0xbe0b36a3	-0.13595061
44	0x3dc22707	0.094801
45	0x3d62cb69	0.05536977
46	0xbdc68060	-0.09692454
47	0xbd44145c	-0.04787098
48	0xbdccd3bb	-0.10001322
49	0xbe01dcd7	-0.126819
50	0x3df077d6	0.11741607
51	0x3c9c8363	0.019105619
52	0x3cc3f12e	0.023918714
53	0x3cdb8301	0.026795866
54	0xbd5adf00	-0.053435326
55	0x3dc80a7f	0.09767627
56	0x3dca470a	0.09876831
57	0x3dc19ee8	0.09454137
58	0xbdd4451b	-0.10364743
59	0xbdc8635f	-0.097845785
60	0xbdddc9db	-0.108295165
61	0x3b6dc80c	0.0036282567
62	0x3ce32434	0.027727224
63	0x3e1985a7	0.1499239
64	0xbda8e4d6	-0.08246772
65	0x3dd0e829	0.10200531
66	0x3dddd9d8	0.10832566
67	0xbc10eb27	-0.008845127
68	0xbdeb9be1	-0.11504341
69	0x3cfd44e3	0.030916637
70	0xbdbf6be4	-0.093467504
71	0x3deb8b2e	0.11501156
72	0x3d9836e1	0.07432342
73	0xbd82c1d9	-0.0638463
74	0x3c8c464e	0.017123368
75	0xbd92dc1b	-0.07170888
76	0xbd85d0a1	-0.065339334
77	0xbd85e074	-0.06536952
78	0x3da44eea	0.08022864
79	0x3df32b60	0.118735075
80	0x3b58d8b9	0.003308816
81	0xbd8a7d5b	-0.06762191
82	0xbd1f8f76	-0.038955174
83	0x3dd48ded	0.10378633
84	0x3de59d47	0.11211639
85	0x3e0c8ec4	0.13726336
86	0xbd718019	-0.058960054
87	0xbce19660	-0.027537525
88	0xbdb13b31	-0.08653868
89	0xbcc0fce6	-0.023558091
90	0xbda54c7a	-0.08071227
91	0xbdbff7a2	-0.09373404
92	0xbdea813d	-0.114504315
93	0x3db95886	0.09050088
94	0x3de41391	0.111365445
95	0x3e359d4c	0.17735785
96	0xbc066b88	-0.008204348
97	0x3b687274	0.003546861
98	0x3b4c3698	0.003116047
99	0xbe3713af	-0.17878602
100	0xbcd9e1b7	-0.026596887
101	0xbb95ec23	-0.004575269
102	0xbe15c7c9	-0.14626993
103	0xbccb4140	-0.024811387
104	0x3e2f74fc	0.1713447
105	0xbcb192e3	-0.021676486
106	0x3cf04f25	0.029334614
107	0x3bdf6cc0	0.006818384
108	0xbd4582ca	-0.048220433
109	0xbdaaa8cf	-0.08332979
110	0x3cd71c93	0.026258742
111	0x3da298b6	0.079392835
112	0x3cb31421	0.021860184
113	0x3e29708b	0.16546838
114	0x3df41a5c	0.1191909
115	0xbdb1e91d	-0.08687041
116	0xbe0b681f	-0.13613938
117	0xbc08c809	-0.008348473
118	0xbdf39b0a	-0.11894806
119	0x3dd54765	0.10414008
120	0xbdeaee00	-0.11471176
121	0x3d303c06	0.043025993
122	0x3e1ce321	0.15321018
123	0xbe23301f	-0.15936325
124	0xbe0ce688	-0.13759816
125	0xbc7edfaa	-0.015556255
126	0xbe083732	-0.13302305
127	0xbdb76ba7	-0.0895608
128	0xbdc231cc	-0.09482154
129	0x3da3eaf8	0.08003801
130	0x3d972c57	0.07381504
131	0xbdb118e7	-0.08647328
132	0x3d858195	0.065188564
133	0xbd56d754	-0.052451447
134	0x3d140caa	0.03614489
135	0x3d254cfd	0.040356625
136	0x3d3a6c7b	0.04551361
137	0x3dfd683c	0.12373397
138	0xbddacbef	-0.106834285
139	0x3b00df9a	0.0019664527
140	0x3db462cc	0.088079065
141	0x3d91b199	0.07113952
142	0x3cb9809b	0.022644332
143	0x3dc1ce2b	0.094631515
144	0x3df163bf	0.11786603
145	0x3dcc2e52	0.099697724
146	0xbcee768a	-0.029109258
147	0xbe10d530	-0.14143825
148	0x3e05a00f	0.13049339
149	0xbe13c64c	-0.14431113
150	0x3e1073e4	0.14106709
151	0x3e210300	0.157238
152	0x3dc97967	0.09837609
153	0x3e1283fb	0.14308159
154	0xbbfda765	-0.0077409022
155	0xbdc1fced	-0.0947207
156	0x3e144b68	0.1448189
157	0x3daf23a6	0.08551721
158	0x3dae63e0	0.085151434
159	0x3dfe3243	0.124119304
160	0xbd2f9fa2	-0.042876847
161	0x3b996f2e	0.004682443
162	0xbd56e53f	-0.05246472
163	0xbbdf5864	-0.006815957
164	0xbdcfbda3	-0.10143592
165	0xbe06171e	-0.13094756
166	0x3d52df19	0.051482294
167	0x3db5de4a	0.08880289
168	0xbc37e67a	-0.0112243835
169	0x3d193f24	0.03741373
170	0xbd8b6bd7	-0.06807678
171	0x3d18daec	0.037318155
172	0xbe0e4f55	-0.1389745
173	0xbe1cd200	-0.15314484
174	0x3d5cf3cc	0.05394344
175	0xbcaf5ab3	-0.021405553
176	0x3d04fc9d	0.032467473
177	0x3e262b60	0.16227484
178	0x3d90e954	0.07075754
179	0x3d49c060	0.04925573
180	0x3de54075	0.11193935
181	0xbdb681aa	-0.0891145
182	0xbe225705	-0.15853508
183	0xbd319243	-0.043352377
184	0x3e3ea143	0.18616204
185	0x3c32a724	0.010904107
186	0xbd16c322	-0.036807187
187	0x3db5f932	0.08885421
188	0x3c9c0715	0.019046346
189	0x3d4669c3	0.048440706
190	0xbc0ed658	-0.008718096
191	0xbe1f04e2	-0.15529206
192	0x3d83f40c	0.064430326
193	0xbe0d50d5	-0.13800366
194	0x3c8973e3	0.016778892
195	0xbd264ef1	-0.04060263
196	0xbe08bdb3	-0.13353615
197	0xbd93d379	-0.072180696
198	0x3d26576f	0.040610727
199	0xbdaa7755	-0.08323542
200	0x3e190652	0.14943817
201	0xbe182e23	-0.1486135
202	0xbdd8a199	-0.10577697
203	0xbe0d09f0	-0.13773322
204	0xbd916191	-0.070986874
205	0xbde1dcd2	-0.11028446
206	0x3db7e9f3	0.08980169
207	0x3e1003cd	0.1406395
208	0xbe02a5d5	-0.12758572
209	0x3e07458b	0.13210122
210	0xbe210e04	-0.15728003
211	0xbdc805e2	-0.09766747
212	0xbd1dc771	-0.03852028
213	0xbd237c24	-0.03991331
214	0xbde5ae85	-0.112149276
215	0xbe0c178b	-0.13680856
216	0xbd81b0aa	-0.06332524
217	0x3d0bac0e	0.03409963
218	0x3db0cf3e	0.08633278
219	0xbe1d17e7	-0.1534115
220	0x3cd9b3ca	0.026574988
221	0x3e00426b	0.12525336
222	0xbe33bf1f	-0.17553376
223	0xbd1e05bf	-0.0385797
224	0x3d8d6f2e	0.069059715
225	0x3cd646d6	0.026156824
226	0xbc70c93c	-0.0146964155
227	0xbe2bc051	-0.16772582
228	0xbdd16819	-0.10224933
229	0x3bb4c6de	0.005516871
230	0x3d8a37f3	0.06748953
231	0xbc64b599	-0.013959312
232	0x3d0c5d6e	0.03426879
233	0x3daf8b26	0.08571462
234	0x3d4f949d	0.050678838
235	0x3cefe2fe	0.029283043
236	0xbd94f9b0	-0.072741866
237	0x3d68fad0	0.05687982
238	0x3d918feb	0.07107528
239	0xbe252e6f	-0.16130994
240	0xbd891746	-0.06693892
241	0xbda98fdd	-0.08279393
242	0xbca7a4fe	-0.020464417
243	0x3dc05918	0.09391993
244	0xbd5b817f	-0.053590294
245	0x3d1b3a6e	0.03789752
246	0x3df1eb26	0.11812429
247	0xbdf3febf	-0.11913823
248	0x3d327a3a	0.043573596
249	0xbc95a22a	-0.018265802
250	0xbd679355	-0.05653699
251	0xbd6db7ec	-0.05803673
252	0xbe256e16	-0.16155276
253	0xbe36daff	-0.17856978
254	0xbdb1ecec	-0.086877674
255	0x3d860a82	0.06544973

model.rnn.bias_ih_l1 f4 [160]
0	0x3e04f708	0.1298486
1	0x3d09365a	0.0334991
2	0xbdd3ebb7	-0.103476934
3	0x3d61a5d3	0.055089783
4	0xbd0b59ee	-0.03402131
5	0x3d2425f6	0.040075265
6	0x3e120b85	0.14262207
7	0x3e1a07bd	0.15042014
8	0xbd0bb134	-0.03410454
9	0x3e16f5d1	0.14742209
10	0xbd6f61b5	-0.05844279
11	0xbd25904d	-0.04042082
12	0xbcc39983	-0.023876911
13	0x3e33637c	0.17518419
14	0xbd7fa50a	-0.062413253
15	0xbbd00fd5	-0.0063495436
16	0x3e07d063	0.13263087
17	0xbdd1c9a5	-0.10243539
18	0x3e2de529	0.16981949
19	0xbdff3af7	-0.124624185
20	0xbd40231c	-0.046908483
21	0xbe009b36	-0.12559208
22	0x3e294b0b	0.16532533
23	0x3ce593c1	0.028024556
24	0x3dd4cbb9	0.103904195
25	0x3dea82f0	0.114507556
26	0xbc3276d8	-0.010892592
27	0x3d8178e9	0.0632189
28	0x3db7479c	0.08949205
29	0x3d1e1698	0.038595766
30	0x3dd3a745	0.103346385
31	0xbdafb1d6	-0.085788414
32	0xbdc16fc9	-0.094451495
33	0x3d7540e5	0.05987634
34	0xbce023f4	-0.027360894
35	0xbdebec80	-0.11519718
36	0xbe06ae38	-0.13152397
37	0x3d984937	0.074358396
38	0xbd1a1874	-0.037620977
39	0xbb1851e8	-0.002324218
40	0x3e0b1006	0.13580331
41	0x3df02c64	0.11727217
42	0xbd903dee	-0.07043062
43	0xbd732a98	-0.059366792
44	0xbc0b6cd2	-0.0085098315
45	0x3da79bfe	0.0818405
46	0xbd8c443f	-0.068489544
47	0x3e0d5d97	0.13805233
48	0x3e01e06b	0.12683265
49	0xbddf8612	-0.10914244
50	0x3d4e5703	0.05037595
51	0x3e0e4a99	0.13895644
52	0x3d1ee4f4	0.038792565
53	0x3e127378	0.1430186
54	0x3dabe584	0.08393386
55	0xbe0cd2c2	-0.13752273
56	0x3db4f16a	0.088351086
57	0x3c561e7a	0.01306879
58	0x3dedc136	0.11609118
59	0xbdeb26bc	-0.11481997
60	0x3dbb98d5	0.0916001
61	0xbdeaa5c3	-0.11457398
62	0x3d816a7d	0.06319139
63	0x3d995960	0.0748775
64	0xbd7b36fd	-0.061331738
65	0xbda84b47	-0.08217483
66	0xbda6b0e8	-0.08139211
67	0x3d821940	0.06352472
68	0x3e31ebb7	0.17375074
69	0x3e10224f	0.14075588
70	0x3df16894	0.11787525
71	0xbca27e99	-0.019835757
72	0xbc888356	-0.016664188
73	0xbcf19214	-0.0294886
74	0xbdb52097	-0.08844107
75	0xbd217b92	-0.039424486
76	0xbd71ca06	-0.059030555
77	0x3d8aa82c	0.067703575
78	0xbe09837d	-0.13429065
79	0x3e0a3c6d	0.13499613
80	0x3e31227d	0.17298312
81	0x3da6438e	0.08118354
82	0x3e2e7cef	0.17039846
83	0xbbfb1f85	-0.0076636695
84	0xbe26c682	-0.16286662
85	0xbdcfc939	-0.10145802
86	0x3c549281	0.012974382
87	0x3e166586	0.14687166
88	0x3d227d6e	0.0396704
89	0xbb81c2bd	-0.003959982
90	0x3d442cbe	0.047894232
91	0x3dcb2adb	0.099202834
92	0x3d9758a0	0.07389951
93	0x3d60cbb1	0.054881755
94	0x3cfec1db	0.031098297
95	0xbe07b43f	-0.13252352
96	0xbdbb2644	-0.09138158
97	0x3dc144a9	0.09436924
98	0xbe0e136d	-0.13874598
99	0xbe35f9ce	-0.17771074
100	0xbdf8d347	-0.12149673
101	0x3de59ff7	0.112121515
102	0x3e10ad2d	0.14128561
103	0xbe1d301e	-0.15350387
104	0x3d4e745f	0.05040395
105	0x3bbe0edb	0.0058001108
106	0xbd15fbc1	-0.036617044
107	0xbd52ca60	-0.05146253
108	0xbe04e0b9	-0.1297635
109	0x3d87c519	0.0662939
110	0xbd534b10	-0.051585257
111	0xbc4213ee	-0.011845572
112	0xbd7ab325	-0.061206
113	0x3aca2b74	0.0015424327
114	0xbd36a6d7	-0.044592705
115	0xbdc798a8	-0.09745914
116	0xbd84c957	-0.06483715
117	0x3d3a6196	0.04550322
118	0xbdca0543	-0.09864285
119	0x3d305ca0	0.043057084
120	0x3cf21623	0.029551571
121	0x3d53a83f	0.051674124
122	0xbac8f6e5	-0.0015332369
123	0x3dd363f5	0.103218
124	0x3dec6484	0.11542609
125	0xbc474291	-0.012161867
126	0x3d9ab9a1	0.07554937
127	0x3d090981	0.03345633
128	0x3d65a070	0.05606121
129	0xbd55a3d0	-0.052158177
130	0x3dee3415	0.116310276
131	0x3e11a3c3	0.14222626
132	0x3d971c01	0.07378388
133	0x3db4ab63	0.08821752
134	0x3cd96f32	0.02654228
135	0xbd26ed7d	-0.04075383
136	0xbc0b46b0	-0.00850074
137	0x3db6e141	0.089296825
138	0x3e4c0b5f	0.19926213
139	0x3d9a3c9a	0.0753109
140	0xbb7bdd0a	-0.003843131
141	0x3ded9f8b	0.11602696
142	0x3e0004a7	0.12501775
143	0x3e1a1649	0.15047564
144	0x3d996092	0.074891225
145	0x3dd4b94a	0.103869036
146	0xbd83606d	-0.06414876
147	0x3d49212a	0.049103893
148	0x3d1e4f11	0.038649622
149	0x3d0e3447	0.034717824
150	0xbdc8c92d	-0.09803996
151	0xbd95b43a	-0.07309766
152	0x3deef501	0.116678245
153	0xbd2410ce	-0.04005509
154	0x3e31edfe	0.17375943
155	0xbdaebad8	-0.08531731
156	0x3b966404	0.0045895595
157	0xbdcee191	-0.10101617
158	0x3d06ef0d	0.03294282
159	0xbdf83f3c	-0.12121436

model.rnn.bias_hh_l1 f4 [160]
0	0x3d5b9dbe	0.05361723
1	0xbe03d6d9	-0.12874927
2	0x3b198415	0.0023424674
3	0x3e196630	0.14980388
4	0x3e1c9e9a	0.15294877
5	0x3da4c781	0.08045865
6	0x3da0da10	0.07854092
7	0x3c94abe8	0.018148378
8	0x3dc988b9	0.09840531
9	0xbd619c6a	-0.05508081
10	0x3d5e4062	0.05426062
11	0xbc31aed3	-0.010844904
12	0x3e05875c	0.13039917
13	0x3e507ebf	0.2036085
14	0x3dc12980	0.094317436
15	0xbdf07158	-0.117403686
16	0xbdcaddde	-0.09905599
17	0x3d56cfb1	0.052444164
18	0x3d86db21	0.06584764
19	0x3bee6e49	0.0072763306
20	0xbd16be4d	-0.03680258
21	0xbc622d5f	-0.013804763
22	0xbdc9d853	-0.09855714
23	0x3d3fac78	0.04679534
24	0xbdc180e0	-0.09448409
25	0xbda0a6b2	-0.078442946
26	0x3c258679	0.010102862
27	0xbd2b6cff	-0.041851994
28	0x3e06099b	0.13089602
29	0xbd9ed314	-0.07755104
30	0x3dbae102	0.09124948
31	0xb8391357	-4.412545e-05
32	0x3e0b57c9	0.13607706
33	0xbc96242e	-0.018327799
34	0x3e0728e0	0.13199186
35	0x3e2cb58c	0.1686613
36	0xbdafc843	-0.08583119
37	0x3d569a90	0.052393496
38	0xbe12d241	-0.14338018
39	0x3c7ceda9	0.015437522
40	0x3d51b830	0.051201046
41	0x3cacfc14	0.021116294
42	0xbce9c529	-0.028536396
43	0x3d2bd902	0.041955
44	0xbcb41852	-0.021984253
45	0xbdba8a59	-0.09108419
46	0xbe045d79	-0.12926282
47	0xbd9d114b	-0.07669314
48	0x3e0c6d2a	0.13713518
49	0x3de327f2	0.11091603
50	0xbdd4c86c	-0.1038979
51	0x3e22f2cd	0.15912934
52	0x3d958d25	0.07302312
53	0xbd223af8	-0.03960702
54	0x3d9cce9e	0.076565966
55	0xbc9775ec	-0.018488847
56	0x3d64c7d4	0.055854633
57	0x3da073a7	0.07834559
58	0x3e163bd9	0.14671268
59	0xbda1bffb	-0.078979455
60	0x3d6292e7	0.05531588
61	0x3cc193f6	0.023630124
62	0xbd854591	-0.06507409
63	0x3e333a23	0.17502646
64	0xbda7c5f0	-0.081920505
65	0x3dd59136	0.104280874
66	0xbdd375d6	-0.1032521
67	0xbdc7a600	-0.09748459
68	0xbd757b39	-0.059931967
69	0x3e0c1b52	0.13682297
70	0xbe094c9e	-0.13408133
71	0x3d8f9585	0.070109405
72	0x3dee1b64	0.11626318
73	0xbdd1fc1a	-0.10253163
74	0xbd981c29	-0.07427246
75	0xbdca73bb	-0.09885355
76	0x3b927534	0.004469538
77	0xbd1a78b2	-0.03771276
78	0x3e1ed1b5	0.15509684
79	0x3d3034be	0.04301905
80	0x3d854957	0.06508129
81	0xbddfc5c6	-0.10926394
82	0x3d02774d	0.031852055
83	0x3d87608f	0.06610214
84	0xbdc22b4f	-0.09480917
85	0x3d2d8dd5	0.04237159
86	0x3e176b89	0.14787115
87	0x3dd21896	0.10258596
88	0xbc120b85	-0.008913879
89	0xbdbd3aff	-0.09239768
90	0xbcde48b4	-0.027134277
91	0xbdf1b216	-0.11801545
92	0xbe0c5d70	-0.13707519
93	0xbe11fad7	-0.14255844
94	0x3d93f7ec	0.07225022
95	0xbdc2c269	-0.09509737
96	0x3d9a62a8	0.075383484
97	0xbd162979	-0.036660645
98	0x3d34d07b	0.044144135
99	0x3d99c801	0.07508851
100	0x3e0b4565	0.1360069
101	0x3e162cef	0.14665578
102	0x3ce83da5	0.028349707
103	0x3ce5aa84	0.02803541
104	0x3e1fdcd3	0.15611582
105	0xbdc971a0	-0.098361254
106	0xbdcb66ac	-0.099316925
107	0xbdb48501	-0.08814431
108	0xbd1246c8	-0.035712034
109	0x3d943324	0.07236317
110	0xbd44e45b	-0.04806934
111	0xbdb9b9b3	-0.090686224
112	0xbd277b44	-0.04088904
113	0x3e10d988	0.14145482
114	0xbdab25ec	-0.083568424
115	0x3d24d268	0.04023972
116	0xbd8fd70b	-0.07023438
117	0x3d4ebed1	0.050474945
118	0x3d47b45d	0.048755992
119	0xbb9e551c	-0.004831923
120	0x3d9869aa	0.07442029
121	0xbd74edb0	-0.05979699
122	0x3e5c4ad3	0.21512918
123	0x3d5909f3	0.052988004
124	0x3e1527dd	0.14565988
125	0x3cd79488	0.026315942
126	0x3bc13861	0.0058966135
127	0x3dffd20f	0.12491237
128	0xbbe332d4	-0.0069335494
129	0xbe11b477	-0.14228998
130	0x3d11371a	0.03545294
131	0x3dbbe5a9	0.091746636
132	0x3e4c0372	0.1992319
133	0x3d3010ae	0.042984657
134	0x3e2b9fc4	0.16760164
135	0x3ddcf79d	0.10789416
136	0xbdf721ca	-0.120669916
137	0x3e4e241f	0.20130967
138	0xbd4aeb5f	-0.049540874
139	0x3cc376bc	0.023860328
140	0x3e06c841	0.13162328
141	0x3e3486ae	0.17629501
142	0xbbeec7f0	-0.007287018
143	0xbdec57d8	-0.11540192
144	0x3cf7d4b0	0.030252784
145	0x3db05b54	0.086111695
146	0x3defe0a7	0.11712771
147	0xbd9c64bf	-0.07636403
148	0xbd891d26	-0.06695013
149	0x3ca7934d	0.02045598
150	0xbe22518e	-0.15851423
151	0xbda1bb3b	-0.078970395
152	0x3dd35cfd	0.103204705
153	0xbd2ef140	-0.042710543
154	0x3e0853ad	0.1331317
155	0xbe0342b5	-0.12818415
156	0xbc7c9567	-0.01541648
157	0xbd9f248c	-0.07770643
158	0x3e177dea	0.14794126
159	0xbbed24c0	-0.007237047

exp_avg f4 [1, 40]
0	0x39cf6dc7	0.00039563907
1	0x38049392	3.1608688e-05
2	0x39def9ea	0.0004252934
3	0x389e9a4f	7.562769e-05
4	0xb996f72a	-0.0002879438
5	0x3997877e	0.00028901914
6	0x38e3fabb	0.00010870906
7	0x38162c3a	3.5803976e-05
8	0xb8e01617	-0.00010685267
9	0xb7c43156	-2.3387995e-05
10	0x39ddf861	0.00042337461
11	0x39e3709e	0.0004338072
12	0xb9bb2976	-0.0003569831
13	0xb9d19d10	-0.00039980607
14	0xb9cbcf96	-0.0003887384
15	0x3a0b0599	0.00053032633
16	0x39739d3b	0.00023232859
17	0x39d19ed7	0.0003998193
18	0xb9e76820	-0.00044137333
19	0xb9f3f6e2	-0.00046532514
20	0xb6ba463d	-5.551409e-06
21	0x39c3835e	0.00037291175
22	0xb7c73109	-2.3745482e-05
23	0xb9bcdb4c	-0.00036021543
24	0x39f055a3	0.00045840172
25	0xb82612e3	-3.9595074e-05
26	0xb9d45b15	-0.00040503652
27	0x39cdeef4	0.0003927868
28	0x39c992fe	0.00038447225
29	0x39df2ab8	0.00042565702
30	0x3685ed41	3.991329e-06
31	0x37f39a90	2.9039831e-05
32	0xba969b4a	-0.0011490372
33	0x39ce856b	0.00039390786
34	0x3991be1b	0.00027798195
35	0xb9b73dc8	-0.0003495051
36	0x399d75af	0.00030033055
37	0x39c5e495	0.00037745075
38	0xb9cb56e9	-0.0003878393
39	0xb9bb1a8a	-0.00035687193

exp_avg_sq f4 [1, 40]
0	0x37168d77	8.973634e-06
1	0x33a93c8f	7.880691e-08
2	0x3699e661	4.586575e-06
3	0x34b1c139	3.3109407e-07
4	0x3611f7a5	2.1750832e-06
5	0x36551d17	3.1756406e-06
6	0x35136995	5.491541e-07
7	0x3564ea54	8.527761e-07
8	0x35dc7361	1.6424857e-06
9	0x359b154d	1.1554599e-06
10	0x36fdd614	7.5649095e-06
11	0x3716a867	8.979906e-06
12	0x36216788	2.4051133e-06
13	0x36b0e483	5.271811e-06
14	0x36a12741	4.8027437e-06
15	0x3419b56b	1.4315235e-07
16	0x356a443f	8.7271104e-07
17	0x370e358b	8.476326e-06
18	0x37111719	8.648051e-06
19	0x36fd6845	7.552126e-06
20	0x34d6d49c	4.00153e-07
21	0x350c9311	5.2368074e-07
22	0x34c67043	3.6962055e-07
23	0x362a622f	2.5389124e-06
24	0x36b68933	5.4399948e-06
25	0x36651ab2	3.4139198e-06
26	0x3700b9f0	7.6726865e-06
27	0x3653343d	3.1471857e-06
28	0x367fef24	3.813716e-06
29	0x36c406db	5.8420533e-06
30	0x34c005e2	3.5767067e-07
31	0x3584d250	9.895975e-07
32	0x3562e259	8.452094e-07
33	0x36aa2be5	5.071505e-06
34	0x35c4d3bc	1.4664761e-06
35	0x35b7defd	1.3699461e-06
36	0x358ba45c	1.0404142e-06
37	0x35fc22ef	1.878563e-06
38	0x35c47412	1.4636919e-06
39	0x356a61d1	8.7314135e-07
